{"format": "graph-model", "generatedBy": "2.4.1", "convertedBy": "TensorFlow.js Converter v3.6.0", "signature": {"inputs": {"nasnet_input:0": {"name": "nasnet_input:0", "dtype": "DT_FLOAT", "tensorShape": {"dim": [{"size": "-1"}, {"size": "224"}, {"size": "224"}, {"size": "3"}]}}}, "outputs": {"Identity:0": {"name": "Identity:0", "dtype": "DT_FLOAT", "tensorShape": {"dim": [{"size": "-1"}, {"size": "1"}]}}}}, "modelTopology": {"node": [{"name": "StatefulPartitionedCall/sequential/NASNet/separable_conv_1_normal_left1_12/separable_conv2d/ReadVariableOp", "op": "Const", "attr": {"value": {"tensor": {"dtype": "DT_FLOAT", "tensorShape": {"dim": [{"size": "5"}, {"size": "5"}, {"size": "176"}, {"size": "1"}]}}}, "dtype": {"type": "DT_FLOAT"}}}, {"name": "StatefulPartitionedCall/sequential/NASNet/separable_conv_2_normal_left1_12/separable_conv2d/ReadVariableOp", "op": "Const", "attr": {"value": {"tensor": {"dtype": "DT_FLOAT", "tensorShape": {"dim": [{"size": "5"}, {"size": "5"}, {"size": "176"}, {"size": "1"}]}}}, "dtype": {"type": "DT_FLOAT"}}}, {"name": "StatefulPartitionedCall/sequential/NASNet/separable_conv_1_normal_right1_12/separable_conv2d/ReadVariableOp", "op": "Const", "attr": {"value": {"tensor": {"dtype": "DT_FLOAT", "tensorShape": {"dim": [{"size": "3"}, {"size": "3"}, {"size": "176"}, {"size": "1"}]}}}, "dtype": {"type": "DT_FLOAT"}}}, {"name": "StatefulPartitionedCall/sequential/NASNet/separable_conv_2_normal_right1_12/separable_conv2d/ReadVariableOp", "op": "Const", "attr": {"value": {"tensor": {"dtype": "DT_FLOAT", "tensorShape": {"dim": [{"size": "3"}, {"size": "3"}, {"size": "176"}, {"size": "1"}]}}}, "dtype": {"type": "DT_FLOAT"}}}, {"name": "StatefulPartitionedCall/sequential/NASNet/separable_conv_1_normal_left2_12/separable_conv2d/ReadVariableOp", "op": "Const", "attr": {"value": {"tensor": {"dtype": "DT_FLOAT", "tensorShape": {"dim": [{"size": "5"}, {"size": "5"}, {"size": "176"}, {"size": "1"}]}}}, "dtype": {"type": "DT_FLOAT"}}}, {"name": "StatefulPartitionedCall/sequential/NASNet/separable_conv_2_normal_left2_12/separable_conv2d/ReadVariableOp", "op": "Const", "attr": {"value": {"tensor": {"dtype": "DT_FLOAT", "tensorShape": {"dim": [{"size": "5"}, {"size": "5"}, {"size": "176"}, {"size": "1"}]}}}, "dtype": {"type": "DT_FLOAT"}}}, {"name": "StatefulPartitionedCall/sequential/NASNet/separable_conv_1_normal_right2_12/separable_conv2d/ReadVariableOp", "op": "Const", "attr": {"value": {"tensor": {"dtype": "DT_FLOAT", "tensorShape": {"dim": [{"size": "3"}, {"size": "3"}, {"size": "176"}, {"size": "1"}]}}}, "dtype": {"type": "DT_FLOAT"}}}, {"name": "StatefulPartitionedCall/sequential/NASNet/separable_conv_2_normal_right2_12/separable_conv2d/ReadVariableOp", "op": "Const", "attr": {"value": {"tensor": {"dtype": "DT_FLOAT", "tensorShape": {"dim": [{"size": "3"}, {"size": "3"}, {"size": "176"}, {"size": "1"}]}}}, "dtype": {"type": "DT_FLOAT"}}}, {"name": "StatefulPartitionedCall/sequential/NASNet/separable_conv_1_normal_left5_12/separable_conv2d/ReadVariableOp", "op": "Const", "attr": {"value": {"tensor": {"dtype": "DT_FLOAT", "tensorShape": {"dim": [{"size": "3"}, {"size": "3"}, {"size": "176"}, {"size": "1"}]}}}, "dtype": {"type": "DT_FLOAT"}}}, {"name": "StatefulPartitionedCall/sequential/NASNet/separable_conv_2_normal_left5_12/separable_conv2d/ReadVariableOp", "op": "Const", "attr": {"value": {"tensor": {"dtype": "DT_FLOAT", "tensorShape": {"dim": [{"size": "3"}, {"size": "3"}, {"size": "176"}, {"size": "1"}]}}}, "dtype": {"type": "DT_FLOAT"}}}, {"name": "StatefulPartitionedCall/sequential/NASNet/separable_conv_1_normal_left1_11/separable_conv2d/ReadVariableOp", "op": "Const", "attr": {"value": {"tensor": {"dtype": "DT_FLOAT", "tensorShape": {"dim": [{"size": "5"}, {"size": "5"}, {"size": "176"}, {"size": "1"}]}}}, "dtype": {"type": "DT_FLOAT"}}}, {"name": "StatefulPartitionedCall/sequential/NASNet/separable_conv_2_normal_left1_11/separable_conv2d/ReadVariableOp", "op": "Const", "attr": {"value": {"tensor": {"dtype": "DT_FLOAT", "tensorShape": {"dim": [{"size": "5"}, {"size": "5"}, {"size": "176"}, {"size": "1"}]}}}, "dtype": {"type": "DT_FLOAT"}}}, {"name": "StatefulPartitionedCall/sequential/NASNet/separable_conv_1_normal_right1_11/separable_conv2d/ReadVariableOp", "op": "Const", "attr": {"value": {"tensor": {"dtype": "DT_FLOAT", "tensorShape": {"dim": [{"size": "3"}, {"size": "3"}, {"size": "176"}, {"size": "1"}]}}}, "dtype": {"type": "DT_FLOAT"}}}, {"name": "StatefulPartitionedCall/sequential/NASNet/separable_conv_2_normal_right1_11/separable_conv2d/ReadVariableOp", "op": "Const", "attr": {"value": {"tensor": {"dtype": "DT_FLOAT", "tensorShape": {"dim": [{"size": "3"}, {"size": "3"}, {"size": "176"}, {"size": "1"}]}}}, "dtype": {"type": "DT_FLOAT"}}}, {"name": "StatefulPartitionedCall/sequential/NASNet/separable_conv_1_normal_left2_11/separable_conv2d/ReadVariableOp", "op": "Const", "attr": {"value": {"tensor": {"dtype": "DT_FLOAT", "tensorShape": {"dim": [{"size": "5"}, {"size": "5"}, {"size": "176"}, {"size": "1"}]}}}, "dtype": {"type": "DT_FLOAT"}}}, {"name": "StatefulPartitionedCall/sequential/NASNet/separable_conv_2_normal_left2_11/separable_conv2d/ReadVariableOp", "op": "Const", "attr": {"value": {"tensor": {"dtype": "DT_FLOAT", "tensorShape": {"dim": [{"size": "5"}, {"size": "5"}, {"size": "176"}, {"size": "1"}]}}}, "dtype": {"type": "DT_FLOAT"}}}, {"name": "StatefulPartitionedCall/sequential/NASNet/separable_conv_1_normal_right2_11/separable_conv2d/ReadVariableOp", "op": "Const", "attr": {"value": {"tensor": {"dtype": "DT_FLOAT", "tensorShape": {"dim": [{"size": "3"}, {"size": "3"}, {"size": "176"}, {"size": "1"}]}}}, "dtype": {"type": "DT_FLOAT"}}}, {"name": "StatefulPartitionedCall/sequential/NASNet/separable_conv_2_normal_right2_11/separable_conv2d/ReadVariableOp", "op": "Const", "attr": {"value": {"tensor": {"dtype": "DT_FLOAT", "tensorShape": {"dim": [{"size": "3"}, {"size": "3"}, {"size": "176"}, {"size": "1"}]}}}, "dtype": {"type": "DT_FLOAT"}}}, {"name": "StatefulPartitionedCall/sequential/NASNet/separable_conv_1_normal_left5_11/separable_conv2d/ReadVariableOp", "op": "Const", "attr": {"value": {"tensor": {"dtype": "DT_FLOAT", "tensorShape": {"dim": [{"size": "3"}, {"size": "3"}, {"size": "176"}, {"size": "1"}]}}}, "dtype": {"type": "DT_FLOAT"}}}, {"name": "StatefulPartitionedCall/sequential/NASNet/separable_conv_2_normal_left5_11/separable_conv2d/ReadVariableOp", "op": "Const", "attr": {"value": {"tensor": {"dtype": "DT_FLOAT", "tensorShape": {"dim": [{"size": "3"}, {"size": "3"}, {"size": "176"}, {"size": "1"}]}}}, "dtype": {"type": "DT_FLOAT"}}}, {"name": "StatefulPartitionedCall/sequential/NASNet/separable_conv_1_normal_left1_10/separable_conv2d/ReadVariableOp", "op": "Const", "attr": {"value": {"tensor": {"dtype": "DT_FLOAT", "tensorShape": {"dim": [{"size": "5"}, {"size": "5"}, {"size": "176"}, {"size": "1"}]}}}, "dtype": {"type": "DT_FLOAT"}}}, {"name": "StatefulPartitionedCall/sequential/NASNet/separable_conv_2_normal_left1_10/separable_conv2d/ReadVariableOp", "op": "Const", "attr": {"value": {"tensor": {"dtype": "DT_FLOAT", "tensorShape": {"dim": [{"size": "5"}, {"size": "5"}, {"size": "176"}, {"size": "1"}]}}}, "dtype": {"type": "DT_FLOAT"}}}, {"name": "StatefulPartitionedCall/sequential/NASNet/separable_conv_1_normal_right1_10/separable_conv2d/ReadVariableOp", "op": "Const", "attr": {"value": {"tensor": {"dtype": "DT_FLOAT", "tensorShape": {"dim": [{"size": "3"}, {"size": "3"}, {"size": "176"}, {"size": "1"}]}}}, "dtype": {"type": "DT_FLOAT"}}}, {"name": "StatefulPartitionedCall/sequential/NASNet/separable_conv_2_normal_right1_10/separable_conv2d/ReadVariableOp", "op": "Const", "attr": {"value": {"tensor": {"dtype": "DT_FLOAT", "tensorShape": {"dim": [{"size": "3"}, {"size": "3"}, {"size": "176"}, {"size": "1"}]}}}, "dtype": {"type": "DT_FLOAT"}}}, {"name": "StatefulPartitionedCall/sequential/NASNet/separable_conv_1_normal_left2_10/separable_conv2d/ReadVariableOp", "op": "Const", "attr": {"value": {"tensor": {"dtype": "DT_FLOAT", "tensorShape": {"dim": [{"size": "5"}, {"size": "5"}, {"size": "176"}, {"size": "1"}]}}}, "dtype": {"type": "DT_FLOAT"}}}, {"name": "StatefulPartitionedCall/sequential/NASNet/separable_conv_2_normal_left2_10/separable_conv2d/ReadVariableOp", "op": "Const", "attr": {"value": {"tensor": {"dtype": "DT_FLOAT", "tensorShape": {"dim": [{"size": "5"}, {"size": "5"}, {"size": "176"}, {"size": "1"}]}}}, "dtype": {"type": "DT_FLOAT"}}}, {"name": "StatefulPartitionedCall/sequential/NASNet/separable_conv_1_normal_right2_10/separable_conv2d/ReadVariableOp", "op": "Const", "attr": {"value": {"tensor": {"dtype": "DT_FLOAT", "tensorShape": {"dim": [{"size": "3"}, {"size": "3"}, {"size": "176"}, {"size": "1"}]}}}, "dtype": {"type": "DT_FLOAT"}}}, {"name": "StatefulPartitionedCall/sequential/NASNet/separable_conv_2_normal_right2_10/separable_conv2d/ReadVariableOp", "op": "Const", "attr": {"value": {"tensor": {"dtype": "DT_FLOAT", "tensorShape": {"dim": [{"size": "3"}, {"size": "3"}, {"size": "176"}, {"size": "1"}]}}}, "dtype": {"type": "DT_FLOAT"}}}, {"name": "StatefulPartitionedCall/sequential/NASNet/separable_conv_1_normal_left5_10/separable_conv2d/ReadVariableOp", "op": "Const", "attr": {"value": {"tensor": {"dtype": "DT_FLOAT", "tensorShape": {"dim": [{"size": "3"}, {"size": "3"}, {"size": "176"}, {"size": "1"}]}}}, "dtype": {"type": "DT_FLOAT"}}}, {"name": "StatefulPartitionedCall/sequential/NASNet/separable_conv_2_normal_left5_10/separable_conv2d/ReadVariableOp", "op": "Const", "attr": {"value": {"tensor": {"dtype": "DT_FLOAT", "tensorShape": {"dim": [{"size": "3"}, {"size": "3"}, {"size": "176"}, {"size": "1"}]}}}, "dtype": {"type": "DT_FLOAT"}}}, {"name": "StatefulPartitionedCall/sequential/NASNet/separable_conv_1_normal_left1_9/separable_conv2d/ReadVariableOp", "op": "Const", "attr": {"value": {"tensor": {"dtype": "DT_FLOAT", "tensorShape": {"dim": [{"size": "5"}, {"size": "5"}, {"size": "176"}, {"size": "1"}]}}}, "dtype": {"type": "DT_FLOAT"}}}, {"name": "StatefulPartitionedCall/sequential/NASNet/separable_conv_2_normal_left1_9/separable_conv2d/ReadVariableOp", "op": "Const", "attr": {"value": {"tensor": {"dtype": "DT_FLOAT", "tensorShape": {"dim": [{"size": "5"}, {"size": "5"}, {"size": "176"}, {"size": "1"}]}}}, "dtype": {"type": "DT_FLOAT"}}}, {"name": "StatefulPartitionedCall/sequential/NASNet/separable_conv_1_normal_right1_9/separable_conv2d/ReadVariableOp", "op": "Const", "attr": {"value": {"tensor": {"dtype": "DT_FLOAT", "tensorShape": {"dim": [{"size": "3"}, {"size": "3"}, {"size": "176"}, {"size": "1"}]}}}, "dtype": {"type": "DT_FLOAT"}}}, {"name": "StatefulPartitionedCall/sequential/NASNet/separable_conv_2_normal_right1_9/separable_conv2d/ReadVariableOp", "op": "Const", "attr": {"value": {"tensor": {"dtype": "DT_FLOAT", "tensorShape": {"dim": [{"size": "3"}, {"size": "3"}, {"size": "176"}, {"size": "1"}]}}}, "dtype": {"type": "DT_FLOAT"}}}, {"name": "StatefulPartitionedCall/sequential/NASNet/separable_conv_1_normal_left2_9/separable_conv2d/ReadVariableOp", "op": "Const", "attr": {"value": {"tensor": {"dtype": "DT_FLOAT", "tensorShape": {"dim": [{"size": "5"}, {"size": "5"}, {"size": "176"}, {"size": "1"}]}}}, "dtype": {"type": "DT_FLOAT"}}}, {"name": "StatefulPartitionedCall/sequential/NASNet/separable_conv_2_normal_left2_9/separable_conv2d/ReadVariableOp", "op": "Const", "attr": {"value": {"tensor": {"dtype": "DT_FLOAT", "tensorShape": {"dim": [{"size": "5"}, {"size": "5"}, {"size": "176"}, {"size": "1"}]}}}, "dtype": {"type": "DT_FLOAT"}}}, {"name": "StatefulPartitionedCall/sequential/NASNet/separable_conv_1_normal_right2_9/separable_conv2d/ReadVariableOp", "op": "Const", "attr": {"value": {"tensor": {"dtype": "DT_FLOAT", "tensorShape": {"dim": [{"size": "3"}, {"size": "3"}, {"size": "176"}, {"size": "1"}]}}}, "dtype": {"type": "DT_FLOAT"}}}, {"name": "StatefulPartitionedCall/sequential/NASNet/separable_conv_2_normal_right2_9/separable_conv2d/ReadVariableOp", "op": "Const", "attr": {"value": {"tensor": {"dtype": "DT_FLOAT", "tensorShape": {"dim": [{"size": "3"}, {"size": "3"}, {"size": "176"}, {"size": "1"}]}}}, "dtype": {"type": "DT_FLOAT"}}}, {"name": "StatefulPartitionedCall/sequential/NASNet/adjust_conv_1_9/Conv2D/ReadVariableOp", "op": "Const", "attr": {"value": {"tensor": {"dtype": "DT_FLOAT", "tensorShape": {"dim": [{"size": "1"}, {"size": "1"}, {"size": "528"}, {"size": "88"}]}}}, "dtype": {"type": "DT_FLOAT"}}}, {"name": "StatefulPartitionedCall/sequential/NASNet/zero_padding2d_3/Pad/paddings", "op": "Const", "attr": {"value": {"tensor": {"dtype": "DT_INT32", "tensorShape": {"dim": [{"size": "4"}, {"size": "2"}]}}}, "dtype": {"type": "DT_INT32"}}}, {"name": "StatefulPartitionedCall/sequential/NASNet/cropping2d_3/strided_slice/stack", "op": "Const", "attr": {"value": {"tensor": {"dtype": "DT_INT32", "tensorShape": {"dim": [{"size": "4"}]}}}, "dtype": {"type": "DT_INT32"}}}, {"name": "StatefulPartitionedCall/sequential/NASNet/cropping2d_3/strided_slice/stack_1", "op": "Const", "attr": {"value": {"tensor": {"dtype": "DT_INT32", "tensorShape": {"dim": [{"size": "4"}]}}}, "dtype": {"type": "DT_INT32"}}}, {"name": "StatefulPartitionedCall/sequential/NASNet/cropping2d_3/strided_slice/stack_2", "op": "Const", "attr": {"value": {"tensor": {"dtype": "DT_INT32", "tensorShape": {"dim": [{"size": "4"}]}}}, "dtype": {"type": "DT_INT32"}}}, {"name": "StatefulPartitionedCall/sequential/NASNet/adjust_conv_2_9/Conv2D/ReadVariableOp", "op": "Const", "attr": {"value": {"tensor": {"dtype": "DT_FLOAT", "tensorShape": {"dim": [{"size": "1"}, {"size": "1"}, {"size": "528"}, {"size": "88"}]}}}, "dtype": {"type": "DT_FLOAT"}}}, {"name": "StatefulPartitionedCall/sequential/NASNet/concatenate_3/concat/axis", "op": "Const", "attr": {"value": {"tensor": {"dtype": "DT_INT32", "tensorShape": {}}}, "dtype": {"type": "DT_INT32"}}}, {"name": "StatefulPartitionedCall/sequential/NASNet/separable_conv_1_normal_left5_9/separable_conv2d/ReadVariableOp", "op": "Const", "attr": {"value": {"tensor": {"dtype": "DT_FLOAT", "tensorShape": {"dim": [{"size": "3"}, {"size": "3"}, {"size": "176"}, {"size": "1"}]}}}, "dtype": {"type": "DT_FLOAT"}}}, {"name": "StatefulPartitionedCall/sequential/NASNet/separable_conv_2_normal_left5_9/separable_conv2d/ReadVariableOp", "op": "Const", "attr": {"value": {"tensor": {"dtype": "DT_FLOAT", "tensorShape": {"dim": [{"size": "3"}, {"size": "3"}, {"size": "176"}, {"size": "1"}]}}}, "dtype": {"type": "DT_FLOAT"}}}, {"name": "StatefulPartitionedCall/sequential/NASNet/separable_conv_1_pad_reduction_right3_reduce_8/Pad/paddings", "op": "Const", "attr": {"value": {"tensor": {"dtype": "DT_INT32", "tensorShape": {"dim": [{"size": "4"}, {"size": "2"}]}}}, "dtype": {"type": "DT_INT32"}}}, {"name": "StatefulPartitionedCall/sequential/NASNet/separable_conv_1_reduction_right3_reduce_8/separable_conv2d/ReadVariableOp", "op": "Const", "attr": {"value": {"tensor": {"dtype": "DT_FLOAT", "tensorShape": {"dim": [{"size": "5"}, {"size": "5"}, {"size": "176"}, {"size": "1"}]}}}, "dtype": {"type": "DT_FLOAT"}}}, {"name": "StatefulPartitionedCall/sequential/NASNet/separable_conv_2_reduction_right3_reduce_8/separable_conv2d/ReadVariableOp", "op": "Const", "attr": {"value": {"tensor": {"dtype": "DT_FLOAT", "tensorShape": {"dim": [{"size": "5"}, {"size": "5"}, {"size": "176"}, {"size": "1"}]}}}, "dtype": {"type": "DT_FLOAT"}}}, {"name": "StatefulPartitionedCall/sequential/NASNet/separable_conv_1_pad_reduction_right2_reduce_8/Pad/paddings", "op": "Const", "attr": {"value": {"tensor": {"dtype": "DT_INT32", "tensorShape": {"dim": [{"size": "4"}, {"size": "2"}]}}}, "dtype": {"type": "DT_INT32"}}}, {"name": "StatefulPartitionedCall/sequential/NASNet/separable_conv_1_reduction_right2_reduce_8/separable_conv2d/ReadVariableOp", "op": "Const", "attr": {"value": {"tensor": {"dtype": "DT_FLOAT", "tensorShape": {"dim": [{"size": "7"}, {"size": "7"}, {"size": "176"}, {"size": "1"}]}}}, "dtype": {"type": "DT_FLOAT"}}}, {"name": "StatefulPartitionedCall/sequential/NASNet/separable_conv_2_reduction_right2_reduce_8/separable_conv2d/ReadVariableOp", "op": "Const", "attr": {"value": {"tensor": {"dtype": "DT_FLOAT", "tensorShape": {"dim": [{"size": "7"}, {"size": "7"}, {"size": "176"}, {"size": "1"}]}}}, "dtype": {"type": "DT_FLOAT"}}}, {"name": "StatefulPartitionedCall/sequential/NASNet/separable_conv_1_pad_reduction_left1_reduce_8/Pad/paddings", "op": "Const", "attr": {"value": {"tensor": {"dtype": "DT_INT32", "tensorShape": {"dim": [{"size": "4"}, {"size": "2"}]}}}, "dtype": {"type": "DT_INT32"}}}, {"name": "StatefulPartitionedCall/sequential/NASNet/separable_conv_1_reduction_left1_reduce_8/separable_conv2d/ReadVariableOp", "op": "Const", "attr": {"value": {"tensor": {"dtype": "DT_FLOAT", "tensorShape": {"dim": [{"size": "5"}, {"size": "5"}, {"size": "176"}, {"size": "1"}]}}}, "dtype": {"type": "DT_FLOAT"}}}, {"name": "StatefulPartitionedCall/sequential/NASNet/separable_conv_2_reduction_left1_reduce_8/separable_conv2d/ReadVariableOp", "op": "Const", "attr": {"value": {"tensor": {"dtype": "DT_FLOAT", "tensorShape": {"dim": [{"size": "5"}, {"size": "5"}, {"size": "176"}, {"size": "1"}]}}}, "dtype": {"type": "DT_FLOAT"}}}, {"name": "StatefulPartitionedCall/sequential/NASNet/separable_conv_1_pad_reduction_right1_reduce_8/Pad/paddings", "op": "Const", "attr": {"value": {"tensor": {"dtype": "DT_INT32", "tensorShape": {"dim": [{"size": "4"}, {"size": "2"}]}}}, "dtype": {"type": "DT_INT32"}}}, {"name": "StatefulPartitionedCall/sequential/NASNet/separable_conv_1_reduction_right1_reduce_8/separable_conv2d/ReadVariableOp", "op": "Const", "attr": {"value": {"tensor": {"dtype": "DT_FLOAT", "tensorShape": {"dim": [{"size": "7"}, {"size": "7"}, {"size": "176"}, {"size": "1"}]}}}, "dtype": {"type": "DT_FLOAT"}}}, {"name": "StatefulPartitionedCall/sequential/NASNet/separable_conv_2_reduction_right1_reduce_8/separable_conv2d/ReadVariableOp", "op": "Const", "attr": {"value": {"tensor": {"dtype": "DT_FLOAT", "tensorShape": {"dim": [{"size": "7"}, {"size": "7"}, {"size": "176"}, {"size": "1"}]}}}, "dtype": {"type": "DT_FLOAT"}}}, {"name": "StatefulPartitionedCall/sequential/NASNet/separable_conv_1_reduction_left4_reduce_8/separable_conv2d/ReadVariableOp", "op": "Const", "attr": {"value": {"tensor": {"dtype": "DT_FLOAT", "tensorShape": {"dim": [{"size": "3"}, {"size": "3"}, {"size": "176"}, {"size": "1"}]}}}, "dtype": {"type": "DT_FLOAT"}}}, {"name": "StatefulPartitionedCall/sequential/NASNet/separable_conv_2_reduction_left4_reduce_8/separable_conv2d/ReadVariableOp", "op": "Const", "attr": {"value": {"tensor": {"dtype": "DT_FLOAT", "tensorShape": {"dim": [{"size": "3"}, {"size": "3"}, {"size": "176"}, {"size": "1"}]}}}, "dtype": {"type": "DT_FLOAT"}}}, {"name": "StatefulPartitionedCall/sequential/NASNet/separable_conv_1_normal_left1_8/separable_conv2d/ReadVariableOp", "op": "Const", "attr": {"value": {"tensor": {"dtype": "DT_FLOAT", "tensorShape": {"dim": [{"size": "5"}, {"size": "5"}, {"size": "88"}, {"size": "1"}]}}}, "dtype": {"type": "DT_FLOAT"}}}, {"name": "StatefulPartitionedCall/sequential/NASNet/separable_conv_2_normal_left1_8/separable_conv2d/ReadVariableOp", "op": "Const", "attr": {"value": {"tensor": {"dtype": "DT_FLOAT", "tensorShape": {"dim": [{"size": "5"}, {"size": "5"}, {"size": "88"}, {"size": "1"}]}}}, "dtype": {"type": "DT_FLOAT"}}}, {"name": "StatefulPartitionedCall/sequential/NASNet/separable_conv_1_normal_right1_8/separable_conv2d/ReadVariableOp", "op": "Const", "attr": {"value": {"tensor": {"dtype": "DT_FLOAT", "tensorShape": {"dim": [{"size": "3"}, {"size": "3"}, {"size": "88"}, {"size": "1"}]}}}, "dtype": {"type": "DT_FLOAT"}}}, {"name": "StatefulPartitionedCall/sequential/NASNet/separable_conv_2_normal_right1_8/separable_conv2d/ReadVariableOp", "op": "Const", "attr": {"value": {"tensor": {"dtype": "DT_FLOAT", "tensorShape": {"dim": [{"size": "3"}, {"size": "3"}, {"size": "88"}, {"size": "1"}]}}}, "dtype": {"type": "DT_FLOAT"}}}, {"name": "StatefulPartitionedCall/sequential/NASNet/separable_conv_1_normal_left2_8/separable_conv2d/ReadVariableOp", "op": "Const", "attr": {"value": {"tensor": {"dtype": "DT_FLOAT", "tensorShape": {"dim": [{"size": "5"}, {"size": "5"}, {"size": "88"}, {"size": "1"}]}}}, "dtype": {"type": "DT_FLOAT"}}}, {"name": "StatefulPartitionedCall/sequential/NASNet/separable_conv_2_normal_left2_8/separable_conv2d/ReadVariableOp", "op": "Const", "attr": {"value": {"tensor": {"dtype": "DT_FLOAT", "tensorShape": {"dim": [{"size": "5"}, {"size": "5"}, {"size": "88"}, {"size": "1"}]}}}, "dtype": {"type": "DT_FLOAT"}}}, {"name": "StatefulPartitionedCall/sequential/NASNet/separable_conv_1_normal_right2_8/separable_conv2d/ReadVariableOp", "op": "Const", "attr": {"value": {"tensor": {"dtype": "DT_FLOAT", "tensorShape": {"dim": [{"size": "3"}, {"size": "3"}, {"size": "88"}, {"size": "1"}]}}}, "dtype": {"type": "DT_FLOAT"}}}, {"name": "StatefulPartitionedCall/sequential/NASNet/separable_conv_2_normal_right2_8/separable_conv2d/ReadVariableOp", "op": "Const", "attr": {"value": {"tensor": {"dtype": "DT_FLOAT", "tensorShape": {"dim": [{"size": "3"}, {"size": "3"}, {"size": "88"}, {"size": "1"}]}}}, "dtype": {"type": "DT_FLOAT"}}}, {"name": "StatefulPartitionedCall/sequential/NASNet/separable_conv_1_normal_left5_8/separable_conv2d/ReadVariableOp", "op": "Const", "attr": {"value": {"tensor": {"dtype": "DT_FLOAT", "tensorShape": {"dim": [{"size": "3"}, {"size": "3"}, {"size": "88"}, {"size": "1"}]}}}, "dtype": {"type": "DT_FLOAT"}}}, {"name": "StatefulPartitionedCall/sequential/NASNet/separable_conv_2_normal_left5_8/separable_conv2d/ReadVariableOp", "op": "Const", "attr": {"value": {"tensor": {"dtype": "DT_FLOAT", "tensorShape": {"dim": [{"size": "3"}, {"size": "3"}, {"size": "88"}, {"size": "1"}]}}}, "dtype": {"type": "DT_FLOAT"}}}, {"name": "StatefulPartitionedCall/sequential/NASNet/separable_conv_1_normal_left1_7/separable_conv2d/ReadVariableOp", "op": "Const", "attr": {"value": {"tensor": {"dtype": "DT_FLOAT", "tensorShape": {"dim": [{"size": "5"}, {"size": "5"}, {"size": "88"}, {"size": "1"}]}}}, "dtype": {"type": "DT_FLOAT"}}}, {"name": "StatefulPartitionedCall/sequential/NASNet/separable_conv_2_normal_left1_7/separable_conv2d/ReadVariableOp", "op": "Const", "attr": {"value": {"tensor": {"dtype": "DT_FLOAT", "tensorShape": {"dim": [{"size": "5"}, {"size": "5"}, {"size": "88"}, {"size": "1"}]}}}, "dtype": {"type": "DT_FLOAT"}}}, {"name": "StatefulPartitionedCall/sequential/NASNet/separable_conv_1_normal_right1_7/separable_conv2d/ReadVariableOp", "op": "Const", "attr": {"value": {"tensor": {"dtype": "DT_FLOAT", "tensorShape": {"dim": [{"size": "3"}, {"size": "3"}, {"size": "88"}, {"size": "1"}]}}}, "dtype": {"type": "DT_FLOAT"}}}, {"name": "StatefulPartitionedCall/sequential/NASNet/separable_conv_2_normal_right1_7/separable_conv2d/ReadVariableOp", "op": "Const", "attr": {"value": {"tensor": {"dtype": "DT_FLOAT", "tensorShape": {"dim": [{"size": "3"}, {"size": "3"}, {"size": "88"}, {"size": "1"}]}}}, "dtype": {"type": "DT_FLOAT"}}}, {"name": "StatefulPartitionedCall/sequential/NASNet/separable_conv_1_normal_left2_7/separable_conv2d/ReadVariableOp", "op": "Const", "attr": {"value": {"tensor": {"dtype": "DT_FLOAT", "tensorShape": {"dim": [{"size": "5"}, {"size": "5"}, {"size": "88"}, {"size": "1"}]}}}, "dtype": {"type": "DT_FLOAT"}}}, {"name": "StatefulPartitionedCall/sequential/NASNet/separable_conv_2_normal_left2_7/separable_conv2d/ReadVariableOp", "op": "Const", "attr": {"value": {"tensor": {"dtype": "DT_FLOAT", "tensorShape": {"dim": [{"size": "5"}, {"size": "5"}, {"size": "88"}, {"size": "1"}]}}}, "dtype": {"type": "DT_FLOAT"}}}, {"name": "StatefulPartitionedCall/sequential/NASNet/separable_conv_1_normal_right2_7/separable_conv2d/ReadVariableOp", "op": "Const", "attr": {"value": {"tensor": {"dtype": "DT_FLOAT", "tensorShape": {"dim": [{"size": "3"}, {"size": "3"}, {"size": "88"}, {"size": "1"}]}}}, "dtype": {"type": "DT_FLOAT"}}}, {"name": "StatefulPartitionedCall/sequential/NASNet/separable_conv_2_normal_right2_7/separable_conv2d/ReadVariableOp", "op": "Const", "attr": {"value": {"tensor": {"dtype": "DT_FLOAT", "tensorShape": {"dim": [{"size": "3"}, {"size": "3"}, {"size": "88"}, {"size": "1"}]}}}, "dtype": {"type": "DT_FLOAT"}}}, {"name": "StatefulPartitionedCall/sequential/NASNet/separable_conv_1_normal_left5_7/separable_conv2d/ReadVariableOp", "op": "Const", "attr": {"value": {"tensor": {"dtype": "DT_FLOAT", "tensorShape": {"dim": [{"size": "3"}, {"size": "3"}, {"size": "88"}, {"size": "1"}]}}}, "dtype": {"type": "DT_FLOAT"}}}, {"name": "StatefulPartitionedCall/sequential/NASNet/separable_conv_2_normal_left5_7/separable_conv2d/ReadVariableOp", "op": "Const", "attr": {"value": {"tensor": {"dtype": "DT_FLOAT", "tensorShape": {"dim": [{"size": "3"}, {"size": "3"}, {"size": "88"}, {"size": "1"}]}}}, "dtype": {"type": "DT_FLOAT"}}}, {"name": "StatefulPartitionedCall/sequential/NASNet/separable_conv_1_normal_left1_6/separable_conv2d/ReadVariableOp", "op": "Const", "attr": {"value": {"tensor": {"dtype": "DT_FLOAT", "tensorShape": {"dim": [{"size": "5"}, {"size": "5"}, {"size": "88"}, {"size": "1"}]}}}, "dtype": {"type": "DT_FLOAT"}}}, {"name": "StatefulPartitionedCall/sequential/NASNet/separable_conv_2_normal_left1_6/separable_conv2d/ReadVariableOp", "op": "Const", "attr": {"value": {"tensor": {"dtype": "DT_FLOAT", "tensorShape": {"dim": [{"size": "5"}, {"size": "5"}, {"size": "88"}, {"size": "1"}]}}}, "dtype": {"type": "DT_FLOAT"}}}, {"name": "StatefulPartitionedCall/sequential/NASNet/separable_conv_1_normal_right1_6/separable_conv2d/ReadVariableOp", "op": "Const", "attr": {"value": {"tensor": {"dtype": "DT_FLOAT", "tensorShape": {"dim": [{"size": "3"}, {"size": "3"}, {"size": "88"}, {"size": "1"}]}}}, "dtype": {"type": "DT_FLOAT"}}}, {"name": "StatefulPartitionedCall/sequential/NASNet/separable_conv_2_normal_right1_6/separable_conv2d/ReadVariableOp", "op": "Const", "attr": {"value": {"tensor": {"dtype": "DT_FLOAT", "tensorShape": {"dim": [{"size": "3"}, {"size": "3"}, {"size": "88"}, {"size": "1"}]}}}, "dtype": {"type": "DT_FLOAT"}}}, {"name": "StatefulPartitionedCall/sequential/NASNet/separable_conv_1_normal_left2_6/separable_conv2d/ReadVariableOp", "op": "Const", "attr": {"value": {"tensor": {"dtype": "DT_FLOAT", "tensorShape": {"dim": [{"size": "5"}, {"size": "5"}, {"size": "88"}, {"size": "1"}]}}}, "dtype": {"type": "DT_FLOAT"}}}, {"name": "StatefulPartitionedCall/sequential/NASNet/separable_conv_2_normal_left2_6/separable_conv2d/ReadVariableOp", "op": "Const", "attr": {"value": {"tensor": {"dtype": "DT_FLOAT", "tensorShape": {"dim": [{"size": "5"}, {"size": "5"}, {"size": "88"}, {"size": "1"}]}}}, "dtype": {"type": "DT_FLOAT"}}}, {"name": "StatefulPartitionedCall/sequential/NASNet/separable_conv_1_normal_right2_6/separable_conv2d/ReadVariableOp", "op": "Const", "attr": {"value": {"tensor": {"dtype": "DT_FLOAT", "tensorShape": {"dim": [{"size": "3"}, {"size": "3"}, {"size": "88"}, {"size": "1"}]}}}, "dtype": {"type": "DT_FLOAT"}}}, {"name": "StatefulPartitionedCall/sequential/NASNet/separable_conv_2_normal_right2_6/separable_conv2d/ReadVariableOp", "op": "Const", "attr": {"value": {"tensor": {"dtype": "DT_FLOAT", "tensorShape": {"dim": [{"size": "3"}, {"size": "3"}, {"size": "88"}, {"size": "1"}]}}}, "dtype": {"type": "DT_FLOAT"}}}, {"name": "StatefulPartitionedCall/sequential/NASNet/separable_conv_1_normal_left5_6/separable_conv2d/ReadVariableOp", "op": "Const", "attr": {"value": {"tensor": {"dtype": "DT_FLOAT", "tensorShape": {"dim": [{"size": "3"}, {"size": "3"}, {"size": "88"}, {"size": "1"}]}}}, "dtype": {"type": "DT_FLOAT"}}}, {"name": "StatefulPartitionedCall/sequential/NASNet/separable_conv_2_normal_left5_6/separable_conv2d/ReadVariableOp", "op": "Const", "attr": {"value": {"tensor": {"dtype": "DT_FLOAT", "tensorShape": {"dim": [{"size": "3"}, {"size": "3"}, {"size": "88"}, {"size": "1"}]}}}, "dtype": {"type": "DT_FLOAT"}}}, {"name": "StatefulPartitionedCall/sequential/NASNet/separable_conv_1_normal_left1_5/separable_conv2d/ReadVariableOp", "op": "Const", "attr": {"value": {"tensor": {"dtype": "DT_FLOAT", "tensorShape": {"dim": [{"size": "5"}, {"size": "5"}, {"size": "88"}, {"size": "1"}]}}}, "dtype": {"type": "DT_FLOAT"}}}, {"name": "StatefulPartitionedCall/sequential/NASNet/separable_conv_2_normal_left1_5/separable_conv2d/ReadVariableOp", "op": "Const", "attr": {"value": {"tensor": {"dtype": "DT_FLOAT", "tensorShape": {"dim": [{"size": "5"}, {"size": "5"}, {"size": "88"}, {"size": "1"}]}}}, "dtype": {"type": "DT_FLOAT"}}}, {"name": "StatefulPartitionedCall/sequential/NASNet/separable_conv_1_normal_right1_5/separable_conv2d/ReadVariableOp", "op": "Const", "attr": {"value": {"tensor": {"dtype": "DT_FLOAT", "tensorShape": {"dim": [{"size": "3"}, {"size": "3"}, {"size": "88"}, {"size": "1"}]}}}, "dtype": {"type": "DT_FLOAT"}}}, {"name": "StatefulPartitionedCall/sequential/NASNet/separable_conv_2_normal_right1_5/separable_conv2d/ReadVariableOp", "op": "Const", "attr": {"value": {"tensor": {"dtype": "DT_FLOAT", "tensorShape": {"dim": [{"size": "3"}, {"size": "3"}, {"size": "88"}, {"size": "1"}]}}}, "dtype": {"type": "DT_FLOAT"}}}, {"name": "StatefulPartitionedCall/sequential/NASNet/separable_conv_1_normal_left2_5/separable_conv2d/ReadVariableOp", "op": "Const", "attr": {"value": {"tensor": {"dtype": "DT_FLOAT", "tensorShape": {"dim": [{"size": "5"}, {"size": "5"}, {"size": "88"}, {"size": "1"}]}}}, "dtype": {"type": "DT_FLOAT"}}}, {"name": "StatefulPartitionedCall/sequential/NASNet/separable_conv_2_normal_left2_5/separable_conv2d/ReadVariableOp", "op": "Const", "attr": {"value": {"tensor": {"dtype": "DT_FLOAT", "tensorShape": {"dim": [{"size": "5"}, {"size": "5"}, {"size": "88"}, {"size": "1"}]}}}, "dtype": {"type": "DT_FLOAT"}}}, {"name": "StatefulPartitionedCall/sequential/NASNet/separable_conv_1_normal_right2_5/separable_conv2d/ReadVariableOp", "op": "Const", "attr": {"value": {"tensor": {"dtype": "DT_FLOAT", "tensorShape": {"dim": [{"size": "3"}, {"size": "3"}, {"size": "88"}, {"size": "1"}]}}}, "dtype": {"type": "DT_FLOAT"}}}, {"name": "StatefulPartitionedCall/sequential/NASNet/separable_conv_2_normal_right2_5/separable_conv2d/ReadVariableOp", "op": "Const", "attr": {"value": {"tensor": {"dtype": "DT_FLOAT", "tensorShape": {"dim": [{"size": "3"}, {"size": "3"}, {"size": "88"}, {"size": "1"}]}}}, "dtype": {"type": "DT_FLOAT"}}}, {"name": "StatefulPartitionedCall/sequential/NASNet/adjust_conv_1_5/Conv2D/ReadVariableOp", "op": "Const", "attr": {"value": {"tensor": {"dtype": "DT_FLOAT", "tensorShape": {"dim": [{"size": "1"}, {"size": "1"}, {"size": "264"}, {"size": "44"}]}}}, "dtype": {"type": "DT_FLOAT"}}}, {"name": "StatefulPartitionedCall/sequential/NASNet/zero_padding2d_2/Pad/paddings", "op": "Const", "attr": {"value": {"tensor": {"dtype": "DT_INT32", "tensorShape": {"dim": [{"size": "4"}, {"size": "2"}]}}}, "dtype": {"type": "DT_INT32"}}}, {"name": "StatefulPartitionedCall/sequential/NASNet/cropping2d_2/strided_slice/stack", "op": "Const", "attr": {"value": {"tensor": {"dtype": "DT_INT32", "tensorShape": {"dim": [{"size": "4"}]}}}, "dtype": {"type": "DT_INT32"}}}, {"name": "StatefulPartitionedCall/sequential/NASNet/cropping2d_2/strided_slice/stack_1", "op": "Const", "attr": {"value": {"tensor": {"dtype": "DT_INT32", "tensorShape": {"dim": [{"size": "4"}]}}}, "dtype": {"type": "DT_INT32"}}}, {"name": "StatefulPartitionedCall/sequential/NASNet/cropping2d_2/strided_slice/stack_2", "op": "Const", "attr": {"value": {"tensor": {"dtype": "DT_INT32", "tensorShape": {"dim": [{"size": "4"}]}}}, "dtype": {"type": "DT_INT32"}}}, {"name": "StatefulPartitionedCall/sequential/NASNet/adjust_conv_2_5/Conv2D/ReadVariableOp", "op": "Const", "attr": {"value": {"tensor": {"dtype": "DT_FLOAT", "tensorShape": {"dim": [{"size": "1"}, {"size": "1"}, {"size": "264"}, {"size": "44"}]}}}, "dtype": {"type": "DT_FLOAT"}}}, {"name": "StatefulPartitionedCall/sequential/NASNet/concatenate_2/concat/axis", "op": "Const", "attr": {"value": {"tensor": {"dtype": "DT_INT32", "tensorShape": {}}}, "dtype": {"type": "DT_INT32"}}}, {"name": "StatefulPartitionedCall/sequential/NASNet/separable_conv_1_normal_left5_5/separable_conv2d/ReadVariableOp", "op": "Const", "attr": {"value": {"tensor": {"dtype": "DT_FLOAT", "tensorShape": {"dim": [{"size": "3"}, {"size": "3"}, {"size": "88"}, {"size": "1"}]}}}, "dtype": {"type": "DT_FLOAT"}}}, {"name": "StatefulPartitionedCall/sequential/NASNet/separable_conv_2_normal_left5_5/separable_conv2d/ReadVariableOp", "op": "Const", "attr": {"value": {"tensor": {"dtype": "DT_FLOAT", "tensorShape": {"dim": [{"size": "3"}, {"size": "3"}, {"size": "88"}, {"size": "1"}]}}}, "dtype": {"type": "DT_FLOAT"}}}, {"name": "StatefulPartitionedCall/sequential/NASNet/separable_conv_1_pad_reduction_right3_reduce_4/Pad/paddings", "op": "Const", "attr": {"value": {"tensor": {"dtype": "DT_INT32", "tensorShape": {"dim": [{"size": "4"}, {"size": "2"}]}}}, "dtype": {"type": "DT_INT32"}}}, {"name": "StatefulPartitionedCall/sequential/NASNet/separable_conv_1_reduction_right3_reduce_4/separable_conv2d/ReadVariableOp", "op": "Const", "attr": {"value": {"tensor": {"dtype": "DT_FLOAT", "tensorShape": {"dim": [{"size": "5"}, {"size": "5"}, {"size": "88"}, {"size": "1"}]}}}, "dtype": {"type": "DT_FLOAT"}}}, {"name": "StatefulPartitionedCall/sequential/NASNet/separable_conv_2_reduction_right3_reduce_4/separable_conv2d/ReadVariableOp", "op": "Const", "attr": {"value": {"tensor": {"dtype": "DT_FLOAT", "tensorShape": {"dim": [{"size": "5"}, {"size": "5"}, {"size": "88"}, {"size": "1"}]}}}, "dtype": {"type": "DT_FLOAT"}}}, {"name": "StatefulPartitionedCall/sequential/NASNet/separable_conv_1_pad_reduction_right2_reduce_4/Pad/paddings", "op": "Const", "attr": {"value": {"tensor": {"dtype": "DT_INT32", "tensorShape": {"dim": [{"size": "4"}, {"size": "2"}]}}}, "dtype": {"type": "DT_INT32"}}}, {"name": "StatefulPartitionedCall/sequential/NASNet/separable_conv_1_reduction_right2_reduce_4/separable_conv2d/ReadVariableOp", "op": "Const", "attr": {"value": {"tensor": {"dtype": "DT_FLOAT", "tensorShape": {"dim": [{"size": "7"}, {"size": "7"}, {"size": "88"}, {"size": "1"}]}}}, "dtype": {"type": "DT_FLOAT"}}}, {"name": "StatefulPartitionedCall/sequential/NASNet/separable_conv_2_reduction_right2_reduce_4/separable_conv2d/ReadVariableOp", "op": "Const", "attr": {"value": {"tensor": {"dtype": "DT_FLOAT", "tensorShape": {"dim": [{"size": "7"}, {"size": "7"}, {"size": "88"}, {"size": "1"}]}}}, "dtype": {"type": "DT_FLOAT"}}}, {"name": "StatefulPartitionedCall/sequential/NASNet/separable_conv_1_pad_reduction_left1_reduce_4/Pad/paddings", "op": "Const", "attr": {"value": {"tensor": {"dtype": "DT_INT32", "tensorShape": {"dim": [{"size": "4"}, {"size": "2"}]}}}, "dtype": {"type": "DT_INT32"}}}, {"name": "StatefulPartitionedCall/sequential/NASNet/separable_conv_1_reduction_left1_reduce_4/separable_conv2d/ReadVariableOp", "op": "Const", "attr": {"value": {"tensor": {"dtype": "DT_FLOAT", "tensorShape": {"dim": [{"size": "5"}, {"size": "5"}, {"size": "88"}, {"size": "1"}]}}}, "dtype": {"type": "DT_FLOAT"}}}, {"name": "StatefulPartitionedCall/sequential/NASNet/separable_conv_2_reduction_left1_reduce_4/separable_conv2d/ReadVariableOp", "op": "Const", "attr": {"value": {"tensor": {"dtype": "DT_FLOAT", "tensorShape": {"dim": [{"size": "5"}, {"size": "5"}, {"size": "88"}, {"size": "1"}]}}}, "dtype": {"type": "DT_FLOAT"}}}, {"name": "StatefulPartitionedCall/sequential/NASNet/separable_conv_1_pad_reduction_right1_reduce_4/Pad/paddings", "op": "Const", "attr": {"value": {"tensor": {"dtype": "DT_INT32", "tensorShape": {"dim": [{"size": "4"}, {"size": "2"}]}}}, "dtype": {"type": "DT_INT32"}}}, {"name": "StatefulPartitionedCall/sequential/NASNet/separable_conv_1_reduction_right1_reduce_4/separable_conv2d/ReadVariableOp", "op": "Const", "attr": {"value": {"tensor": {"dtype": "DT_FLOAT", "tensorShape": {"dim": [{"size": "7"}, {"size": "7"}, {"size": "88"}, {"size": "1"}]}}}, "dtype": {"type": "DT_FLOAT"}}}, {"name": "StatefulPartitionedCall/sequential/NASNet/separable_conv_2_reduction_right1_reduce_4/separable_conv2d/ReadVariableOp", "op": "Const", "attr": {"value": {"tensor": {"dtype": "DT_FLOAT", "tensorShape": {"dim": [{"size": "7"}, {"size": "7"}, {"size": "88"}, {"size": "1"}]}}}, "dtype": {"type": "DT_FLOAT"}}}, {"name": "StatefulPartitionedCall/sequential/NASNet/separable_conv_1_reduction_left4_reduce_4/separable_conv2d/ReadVariableOp", "op": "Const", "attr": {"value": {"tensor": {"dtype": "DT_FLOAT", "tensorShape": {"dim": [{"size": "3"}, {"size": "3"}, {"size": "88"}, {"size": "1"}]}}}, "dtype": {"type": "DT_FLOAT"}}}, {"name": "StatefulPartitionedCall/sequential/NASNet/separable_conv_2_reduction_left4_reduce_4/separable_conv2d/ReadVariableOp", "op": "Const", "attr": {"value": {"tensor": {"dtype": "DT_FLOAT", "tensorShape": {"dim": [{"size": "3"}, {"size": "3"}, {"size": "88"}, {"size": "1"}]}}}, "dtype": {"type": "DT_FLOAT"}}}, {"name": "StatefulPartitionedCall/sequential/NASNet/separable_conv_1_normal_left1_3/separable_conv2d/ReadVariableOp", "op": "Const", "attr": {"value": {"tensor": {"dtype": "DT_FLOAT", "tensorShape": {"dim": [{"size": "5"}, {"size": "5"}, {"size": "44"}, {"size": "1"}]}}}, "dtype": {"type": "DT_FLOAT"}}}, {"name": "StatefulPartitionedCall/sequential/NASNet/separable_conv_2_normal_left1_3/separable_conv2d/ReadVariableOp", "op": "Const", "attr": {"value": {"tensor": {"dtype": "DT_FLOAT", "tensorShape": {"dim": [{"size": "5"}, {"size": "5"}, {"size": "44"}, {"size": "1"}]}}}, "dtype": {"type": "DT_FLOAT"}}}, {"name": "StatefulPartitionedCall/sequential/NASNet/separable_conv_1_normal_right1_3/separable_conv2d/ReadVariableOp", "op": "Const", "attr": {"value": {"tensor": {"dtype": "DT_FLOAT", "tensorShape": {"dim": [{"size": "3"}, {"size": "3"}, {"size": "44"}, {"size": "1"}]}}}, "dtype": {"type": "DT_FLOAT"}}}, {"name": "StatefulPartitionedCall/sequential/NASNet/separable_conv_2_normal_right1_3/separable_conv2d/ReadVariableOp", "op": "Const", "attr": {"value": {"tensor": {"dtype": "DT_FLOAT", "tensorShape": {"dim": [{"size": "3"}, {"size": "3"}, {"size": "44"}, {"size": "1"}]}}}, "dtype": {"type": "DT_FLOAT"}}}, {"name": "StatefulPartitionedCall/sequential/NASNet/separable_conv_1_normal_left2_3/separable_conv2d/ReadVariableOp", "op": "Const", "attr": {"value": {"tensor": {"dtype": "DT_FLOAT", "tensorShape": {"dim": [{"size": "5"}, {"size": "5"}, {"size": "44"}, {"size": "1"}]}}}, "dtype": {"type": "DT_FLOAT"}}}, {"name": "StatefulPartitionedCall/sequential/NASNet/separable_conv_2_normal_left2_3/separable_conv2d/ReadVariableOp", "op": "Const", "attr": {"value": {"tensor": {"dtype": "DT_FLOAT", "tensorShape": {"dim": [{"size": "5"}, {"size": "5"}, {"size": "44"}, {"size": "1"}]}}}, "dtype": {"type": "DT_FLOAT"}}}, {"name": "StatefulPartitionedCall/sequential/NASNet/separable_conv_1_normal_right2_3/separable_conv2d/ReadVariableOp", "op": "Const", "attr": {"value": {"tensor": {"dtype": "DT_FLOAT", "tensorShape": {"dim": [{"size": "3"}, {"size": "3"}, {"size": "44"}, {"size": "1"}]}}}, "dtype": {"type": "DT_FLOAT"}}}, {"name": "StatefulPartitionedCall/sequential/NASNet/separable_conv_2_normal_right2_3/separable_conv2d/ReadVariableOp", "op": "Const", "attr": {"value": {"tensor": {"dtype": "DT_FLOAT", "tensorShape": {"dim": [{"size": "3"}, {"size": "3"}, {"size": "44"}, {"size": "1"}]}}}, "dtype": {"type": "DT_FLOAT"}}}, {"name": "StatefulPartitionedCall/sequential/NASNet/separable_conv_1_normal_left5_3/separable_conv2d/ReadVariableOp", "op": "Const", "attr": {"value": {"tensor": {"dtype": "DT_FLOAT", "tensorShape": {"dim": [{"size": "3"}, {"size": "3"}, {"size": "44"}, {"size": "1"}]}}}, "dtype": {"type": "DT_FLOAT"}}}, {"name": "StatefulPartitionedCall/sequential/NASNet/separable_conv_2_normal_left5_3/separable_conv2d/ReadVariableOp", "op": "Const", "attr": {"value": {"tensor": {"dtype": "DT_FLOAT", "tensorShape": {"dim": [{"size": "3"}, {"size": "3"}, {"size": "44"}, {"size": "1"}]}}}, "dtype": {"type": "DT_FLOAT"}}}, {"name": "StatefulPartitionedCall/sequential/NASNet/separable_conv_1_normal_left1_2/separable_conv2d/ReadVariableOp", "op": "Const", "attr": {"value": {"tensor": {"dtype": "DT_FLOAT", "tensorShape": {"dim": [{"size": "5"}, {"size": "5"}, {"size": "44"}, {"size": "1"}]}}}, "dtype": {"type": "DT_FLOAT"}}}, {"name": "StatefulPartitionedCall/sequential/NASNet/separable_conv_2_normal_left1_2/separable_conv2d/ReadVariableOp", "op": "Const", "attr": {"value": {"tensor": {"dtype": "DT_FLOAT", "tensorShape": {"dim": [{"size": "5"}, {"size": "5"}, {"size": "44"}, {"size": "1"}]}}}, "dtype": {"type": "DT_FLOAT"}}}, {"name": "StatefulPartitionedCall/sequential/NASNet/separable_conv_1_normal_right1_2/separable_conv2d/ReadVariableOp", "op": "Const", "attr": {"value": {"tensor": {"dtype": "DT_FLOAT", "tensorShape": {"dim": [{"size": "3"}, {"size": "3"}, {"size": "44"}, {"size": "1"}]}}}, "dtype": {"type": "DT_FLOAT"}}}, {"name": "StatefulPartitionedCall/sequential/NASNet/separable_conv_2_normal_right1_2/separable_conv2d/ReadVariableOp", "op": "Const", "attr": {"value": {"tensor": {"dtype": "DT_FLOAT", "tensorShape": {"dim": [{"size": "3"}, {"size": "3"}, {"size": "44"}, {"size": "1"}]}}}, "dtype": {"type": "DT_FLOAT"}}}, {"name": "StatefulPartitionedCall/sequential/NASNet/separable_conv_1_normal_left2_2/separable_conv2d/ReadVariableOp", "op": "Const", "attr": {"value": {"tensor": {"dtype": "DT_FLOAT", "tensorShape": {"dim": [{"size": "5"}, {"size": "5"}, {"size": "44"}, {"size": "1"}]}}}, "dtype": {"type": "DT_FLOAT"}}}, {"name": "StatefulPartitionedCall/sequential/NASNet/separable_conv_2_normal_left2_2/separable_conv2d/ReadVariableOp", "op": "Const", "attr": {"value": {"tensor": {"dtype": "DT_FLOAT", "tensorShape": {"dim": [{"size": "5"}, {"size": "5"}, {"size": "44"}, {"size": "1"}]}}}, "dtype": {"type": "DT_FLOAT"}}}, {"name": "StatefulPartitionedCall/sequential/NASNet/separable_conv_1_normal_right2_2/separable_conv2d/ReadVariableOp", "op": "Const", "attr": {"value": {"tensor": {"dtype": "DT_FLOAT", "tensorShape": {"dim": [{"size": "3"}, {"size": "3"}, {"size": "44"}, {"size": "1"}]}}}, "dtype": {"type": "DT_FLOAT"}}}, {"name": "StatefulPartitionedCall/sequential/NASNet/separable_conv_2_normal_right2_2/separable_conv2d/ReadVariableOp", "op": "Const", "attr": {"value": {"tensor": {"dtype": "DT_FLOAT", "tensorShape": {"dim": [{"size": "3"}, {"size": "3"}, {"size": "44"}, {"size": "1"}]}}}, "dtype": {"type": "DT_FLOAT"}}}, {"name": "StatefulPartitionedCall/sequential/NASNet/separable_conv_1_normal_left5_2/separable_conv2d/ReadVariableOp", "op": "Const", "attr": {"value": {"tensor": {"dtype": "DT_FLOAT", "tensorShape": {"dim": [{"size": "3"}, {"size": "3"}, {"size": "44"}, {"size": "1"}]}}}, "dtype": {"type": "DT_FLOAT"}}}, {"name": "StatefulPartitionedCall/sequential/NASNet/separable_conv_2_normal_left5_2/separable_conv2d/ReadVariableOp", "op": "Const", "attr": {"value": {"tensor": {"dtype": "DT_FLOAT", "tensorShape": {"dim": [{"size": "3"}, {"size": "3"}, {"size": "44"}, {"size": "1"}]}}}, "dtype": {"type": "DT_FLOAT"}}}, {"name": "StatefulPartitionedCall/sequential/NASNet/separable_conv_1_normal_left1_1/separable_conv2d/ReadVariableOp", "op": "Const", "attr": {"value": {"tensor": {"dtype": "DT_FLOAT", "tensorShape": {"dim": [{"size": "5"}, {"size": "5"}, {"size": "44"}, {"size": "1"}]}}}, "dtype": {"type": "DT_FLOAT"}}}, {"name": "StatefulPartitionedCall/sequential/NASNet/separable_conv_2_normal_left1_1/separable_conv2d/ReadVariableOp", "op": "Const", "attr": {"value": {"tensor": {"dtype": "DT_FLOAT", "tensorShape": {"dim": [{"size": "5"}, {"size": "5"}, {"size": "44"}, {"size": "1"}]}}}, "dtype": {"type": "DT_FLOAT"}}}, {"name": "StatefulPartitionedCall/sequential/NASNet/separable_conv_1_normal_right1_1/separable_conv2d/ReadVariableOp", "op": "Const", "attr": {"value": {"tensor": {"dtype": "DT_FLOAT", "tensorShape": {"dim": [{"size": "3"}, {"size": "3"}, {"size": "44"}, {"size": "1"}]}}}, "dtype": {"type": "DT_FLOAT"}}}, {"name": "StatefulPartitionedCall/sequential/NASNet/separable_conv_2_normal_right1_1/separable_conv2d/ReadVariableOp", "op": "Const", "attr": {"value": {"tensor": {"dtype": "DT_FLOAT", "tensorShape": {"dim": [{"size": "3"}, {"size": "3"}, {"size": "44"}, {"size": "1"}]}}}, "dtype": {"type": "DT_FLOAT"}}}, {"name": "StatefulPartitionedCall/sequential/NASNet/separable_conv_1_normal_left2_1/separable_conv2d/ReadVariableOp", "op": "Const", "attr": {"value": {"tensor": {"dtype": "DT_FLOAT", "tensorShape": {"dim": [{"size": "5"}, {"size": "5"}, {"size": "44"}, {"size": "1"}]}}}, "dtype": {"type": "DT_FLOAT"}}}, {"name": "StatefulPartitionedCall/sequential/NASNet/separable_conv_2_normal_left2_1/separable_conv2d/ReadVariableOp", "op": "Const", "attr": {"value": {"tensor": {"dtype": "DT_FLOAT", "tensorShape": {"dim": [{"size": "5"}, {"size": "5"}, {"size": "44"}, {"size": "1"}]}}}, "dtype": {"type": "DT_FLOAT"}}}, {"name": "StatefulPartitionedCall/sequential/NASNet/separable_conv_1_normal_right2_1/separable_conv2d/ReadVariableOp", "op": "Const", "attr": {"value": {"tensor": {"dtype": "DT_FLOAT", "tensorShape": {"dim": [{"size": "3"}, {"size": "3"}, {"size": "44"}, {"size": "1"}]}}}, "dtype": {"type": "DT_FLOAT"}}}, {"name": "StatefulPartitionedCall/sequential/NASNet/separable_conv_2_normal_right2_1/separable_conv2d/ReadVariableOp", "op": "Const", "attr": {"value": {"tensor": {"dtype": "DT_FLOAT", "tensorShape": {"dim": [{"size": "3"}, {"size": "3"}, {"size": "44"}, {"size": "1"}]}}}, "dtype": {"type": "DT_FLOAT"}}}, {"name": "StatefulPartitionedCall/sequential/NASNet/separable_conv_1_normal_left5_1/separable_conv2d/ReadVariableOp", "op": "Const", "attr": {"value": {"tensor": {"dtype": "DT_FLOAT", "tensorShape": {"dim": [{"size": "3"}, {"size": "3"}, {"size": "44"}, {"size": "1"}]}}}, "dtype": {"type": "DT_FLOAT"}}}, {"name": "StatefulPartitionedCall/sequential/NASNet/separable_conv_2_normal_left5_1/separable_conv2d/ReadVariableOp", "op": "Const", "attr": {"value": {"tensor": {"dtype": "DT_FLOAT", "tensorShape": {"dim": [{"size": "3"}, {"size": "3"}, {"size": "44"}, {"size": "1"}]}}}, "dtype": {"type": "DT_FLOAT"}}}, {"name": "StatefulPartitionedCall/sequential/NASNet/separable_conv_1_normal_left1_0/separable_conv2d/ReadVariableOp", "op": "Const", "attr": {"value": {"tensor": {"dtype": "DT_FLOAT", "tensorShape": {"dim": [{"size": "5"}, {"size": "5"}, {"size": "44"}, {"size": "1"}]}}}, "dtype": {"type": "DT_FLOAT"}}}, {"name": "StatefulPartitionedCall/sequential/NASNet/separable_conv_2_normal_left1_0/separable_conv2d/ReadVariableOp", "op": "Const", "attr": {"value": {"tensor": {"dtype": "DT_FLOAT", "tensorShape": {"dim": [{"size": "5"}, {"size": "5"}, {"size": "44"}, {"size": "1"}]}}}, "dtype": {"type": "DT_FLOAT"}}}, {"name": "StatefulPartitionedCall/sequential/NASNet/separable_conv_1_normal_right1_0/separable_conv2d/ReadVariableOp", "op": "Const", "attr": {"value": {"tensor": {"dtype": "DT_FLOAT", "tensorShape": {"dim": [{"size": "3"}, {"size": "3"}, {"size": "44"}, {"size": "1"}]}}}, "dtype": {"type": "DT_FLOAT"}}}, {"name": "StatefulPartitionedCall/sequential/NASNet/separable_conv_2_normal_right1_0/separable_conv2d/ReadVariableOp", "op": "Const", "attr": {"value": {"tensor": {"dtype": "DT_FLOAT", "tensorShape": {"dim": [{"size": "3"}, {"size": "3"}, {"size": "44"}, {"size": "1"}]}}}, "dtype": {"type": "DT_FLOAT"}}}, {"name": "StatefulPartitionedCall/sequential/NASNet/separable_conv_1_normal_left2_0/separable_conv2d/ReadVariableOp", "op": "Const", "attr": {"value": {"tensor": {"dtype": "DT_FLOAT", "tensorShape": {"dim": [{"size": "5"}, {"size": "5"}, {"size": "44"}, {"size": "1"}]}}}, "dtype": {"type": "DT_FLOAT"}}}, {"name": "StatefulPartitionedCall/sequential/NASNet/separable_conv_2_normal_left2_0/separable_conv2d/ReadVariableOp", "op": "Const", "attr": {"value": {"tensor": {"dtype": "DT_FLOAT", "tensorShape": {"dim": [{"size": "5"}, {"size": "5"}, {"size": "44"}, {"size": "1"}]}}}, "dtype": {"type": "DT_FLOAT"}}}, {"name": "StatefulPartitionedCall/sequential/NASNet/separable_conv_1_normal_right2_0/separable_conv2d/ReadVariableOp", "op": "Const", "attr": {"value": {"tensor": {"dtype": "DT_FLOAT", "tensorShape": {"dim": [{"size": "3"}, {"size": "3"}, {"size": "44"}, {"size": "1"}]}}}, "dtype": {"type": "DT_FLOAT"}}}, {"name": "StatefulPartitionedCall/sequential/NASNet/separable_conv_2_normal_right2_0/separable_conv2d/ReadVariableOp", "op": "Const", "attr": {"value": {"tensor": {"dtype": "DT_FLOAT", "tensorShape": {"dim": [{"size": "3"}, {"size": "3"}, {"size": "44"}, {"size": "1"}]}}}, "dtype": {"type": "DT_FLOAT"}}}, {"name": "StatefulPartitionedCall/sequential/NASNet/adjust_conv_1_0/Conv2D/ReadVariableOp", "op": "Const", "attr": {"value": {"tensor": {"dtype": "DT_FLOAT", "tensorShape": {"dim": [{"size": "1"}, {"size": "1"}, {"size": "44"}, {"size": "22"}]}}}, "dtype": {"type": "DT_FLOAT"}}}, {"name": "StatefulPartitionedCall/sequential/NASNet/zero_padding2d_1/Pad/paddings", "op": "Const", "attr": {"value": {"tensor": {"dtype": "DT_INT32", "tensorShape": {"dim": [{"size": "4"}, {"size": "2"}]}}}, "dtype": {"type": "DT_INT32"}}}, {"name": "StatefulPartitionedCall/sequential/NASNet/cropping2d_1/strided_slice/stack", "op": "Const", "attr": {"value": {"tensor": {"dtype": "DT_INT32", "tensorShape": {"dim": [{"size": "4"}]}}}, "dtype": {"type": "DT_INT32"}}}, {"name": "StatefulPartitionedCall/sequential/NASNet/cropping2d_1/strided_slice/stack_1", "op": "Const", "attr": {"value": {"tensor": {"dtype": "DT_INT32", "tensorShape": {"dim": [{"size": "4"}]}}}, "dtype": {"type": "DT_INT32"}}}, {"name": "StatefulPartitionedCall/sequential/NASNet/cropping2d_1/strided_slice/stack_2", "op": "Const", "attr": {"value": {"tensor": {"dtype": "DT_INT32", "tensorShape": {"dim": [{"size": "4"}]}}}, "dtype": {"type": "DT_INT32"}}}, {"name": "StatefulPartitionedCall/sequential/NASNet/adjust_conv_2_0/Conv2D/ReadVariableOp", "op": "Const", "attr": {"value": {"tensor": {"dtype": "DT_FLOAT", "tensorShape": {"dim": [{"size": "1"}, {"size": "1"}, {"size": "44"}, {"size": "22"}]}}}, "dtype": {"type": "DT_FLOAT"}}}, {"name": "StatefulPartitionedCall/sequential/NASNet/concatenate_1/concat/axis", "op": "Const", "attr": {"value": {"tensor": {"dtype": "DT_INT32", "tensorShape": {}}}, "dtype": {"type": "DT_INT32"}}}, {"name": "StatefulPartitionedCall/sequential/NASNet/separable_conv_1_normal_left5_0/separable_conv2d/ReadVariableOp", "op": "Const", "attr": {"value": {"tensor": {"dtype": "DT_FLOAT", "tensorShape": {"dim": [{"size": "3"}, {"size": "3"}, {"size": "44"}, {"size": "1"}]}}}, "dtype": {"type": "DT_FLOAT"}}}, {"name": "StatefulPartitionedCall/sequential/NASNet/separable_conv_2_normal_left5_0/separable_conv2d/ReadVariableOp", "op": "Const", "attr": {"value": {"tensor": {"dtype": "DT_FLOAT", "tensorShape": {"dim": [{"size": "3"}, {"size": "3"}, {"size": "44"}, {"size": "1"}]}}}, "dtype": {"type": "DT_FLOAT"}}}, {"name": "StatefulPartitionedCall/sequential/NASNet/separable_conv_1_pad_reduction_right3_stem_2/Pad/paddings", "op": "Const", "attr": {"value": {"tensor": {"dtype": "DT_INT32", "tensorShape": {"dim": [{"size": "4"}, {"size": "2"}]}}}, "dtype": {"type": "DT_INT32"}}}, {"name": "StatefulPartitionedCall/sequential/NASNet/separable_conv_1_reduction_right3_stem_2/separable_conv2d/ReadVariableOp", "op": "Const", "attr": {"value": {"tensor": {"dtype": "DT_FLOAT", "tensorShape": {"dim": [{"size": "5"}, {"size": "5"}, {"size": "22"}, {"size": "1"}]}}}, "dtype": {"type": "DT_FLOAT"}}}, {"name": "StatefulPartitionedCall/sequential/NASNet/separable_conv_2_reduction_right3_stem_2/separable_conv2d/ReadVariableOp", "op": "Const", "attr": {"value": {"tensor": {"dtype": "DT_FLOAT", "tensorShape": {"dim": [{"size": "5"}, {"size": "5"}, {"size": "22"}, {"size": "1"}]}}}, "dtype": {"type": "DT_FLOAT"}}}, {"name": "StatefulPartitionedCall/sequential/NASNet/separable_conv_1_pad_reduction_right2_stem_2/Pad/paddings", "op": "Const", "attr": {"value": {"tensor": {"dtype": "DT_INT32", "tensorShape": {"dim": [{"size": "4"}, {"size": "2"}]}}}, "dtype": {"type": "DT_INT32"}}}, {"name": "StatefulPartitionedCall/sequential/NASNet/separable_conv_1_reduction_right2_stem_2/separable_conv2d/ReadVariableOp", "op": "Const", "attr": {"value": {"tensor": {"dtype": "DT_FLOAT", "tensorShape": {"dim": [{"size": "7"}, {"size": "7"}, {"size": "22"}, {"size": "1"}]}}}, "dtype": {"type": "DT_FLOAT"}}}, {"name": "StatefulPartitionedCall/sequential/NASNet/separable_conv_2_reduction_right2_stem_2/separable_conv2d/ReadVariableOp", "op": "Const", "attr": {"value": {"tensor": {"dtype": "DT_FLOAT", "tensorShape": {"dim": [{"size": "7"}, {"size": "7"}, {"size": "22"}, {"size": "1"}]}}}, "dtype": {"type": "DT_FLOAT"}}}, {"name": "StatefulPartitionedCall/sequential/NASNet/separable_conv_1_pad_reduction_left1_stem_2/Pad/paddings", "op": "Const", "attr": {"value": {"tensor": {"dtype": "DT_INT32", "tensorShape": {"dim": [{"size": "4"}, {"size": "2"}]}}}, "dtype": {"type": "DT_INT32"}}}, {"name": "StatefulPartitionedCall/sequential/NASNet/separable_conv_1_reduction_left1_stem_2/separable_conv2d/ReadVariableOp", "op": "Const", "attr": {"value": {"tensor": {"dtype": "DT_FLOAT", "tensorShape": {"dim": [{"size": "5"}, {"size": "5"}, {"size": "22"}, {"size": "1"}]}}}, "dtype": {"type": "DT_FLOAT"}}}, {"name": "StatefulPartitionedCall/sequential/NASNet/separable_conv_2_reduction_left1_stem_2/separable_conv2d/ReadVariableOp", "op": "Const", "attr": {"value": {"tensor": {"dtype": "DT_FLOAT", "tensorShape": {"dim": [{"size": "5"}, {"size": "5"}, {"size": "22"}, {"size": "1"}]}}}, "dtype": {"type": "DT_FLOAT"}}}, {"name": "StatefulPartitionedCall/sequential/NASNet/adjust_conv_1_stem_2/Conv2D/ReadVariableOp", "op": "Const", "attr": {"value": {"tensor": {"dtype": "DT_FLOAT", "tensorShape": {"dim": [{"size": "1"}, {"size": "1"}, {"size": "32"}, {"size": "11"}]}}}, "dtype": {"type": "DT_FLOAT"}}}, {"name": "StatefulPartitionedCall/sequential/NASNet/zero_padding2d/Pad/paddings", "op": "Const", "attr": {"value": {"tensor": {"dtype": "DT_INT32", "tensorShape": {"dim": [{"size": "4"}, {"size": "2"}]}}}, "dtype": {"type": "DT_INT32"}}}, {"name": "StatefulPartitionedCall/sequential/NASNet/cropping2d/strided_slice/stack", "op": "Const", "attr": {"value": {"tensor": {"dtype": "DT_INT32", "tensorShape": {"dim": [{"size": "4"}]}}}, "dtype": {"type": "DT_INT32"}}}, {"name": "StatefulPartitionedCall/sequential/NASNet/cropping2d/strided_slice/stack_1", "op": "Const", "attr": {"value": {"tensor": {"dtype": "DT_INT32", "tensorShape": {"dim": [{"size": "4"}]}}}, "dtype": {"type": "DT_INT32"}}}, {"name": "StatefulPartitionedCall/sequential/NASNet/cropping2d/strided_slice/stack_2", "op": "Const", "attr": {"value": {"tensor": {"dtype": "DT_INT32", "tensorShape": {"dim": [{"size": "4"}]}}}, "dtype": {"type": "DT_INT32"}}}, {"name": "StatefulPartitionedCall/sequential/NASNet/adjust_conv_2_stem_2/Conv2D/ReadVariableOp", "op": "Const", "attr": {"value": {"tensor": {"dtype": "DT_FLOAT", "tensorShape": {"dim": [{"size": "1"}, {"size": "1"}, {"size": "32"}, {"size": "11"}]}}}, "dtype": {"type": "DT_FLOAT"}}}, {"name": "StatefulPartitionedCall/sequential/NASNet/concatenate/concat/axis", "op": "Const", "attr": {"value": {"tensor": {"dtype": "DT_INT32", "tensorShape": {}}}, "dtype": {"type": "DT_INT32"}}}, {"name": "StatefulPartitionedCall/sequential/NASNet/separable_conv_1_pad_reduction_right1_stem_2/Pad/paddings", "op": "Const", "attr": {"value": {"tensor": {"dtype": "DT_INT32", "tensorShape": {"dim": [{"size": "4"}, {"size": "2"}]}}}, "dtype": {"type": "DT_INT32"}}}, {"name": "StatefulPartitionedCall/sequential/NASNet/separable_conv_1_reduction_right1_stem_2/separable_conv2d/ReadVariableOp", "op": "Const", "attr": {"value": {"tensor": {"dtype": "DT_FLOAT", "tensorShape": {"dim": [{"size": "7"}, {"size": "7"}, {"size": "22"}, {"size": "1"}]}}}, "dtype": {"type": "DT_FLOAT"}}}, {"name": "StatefulPartitionedCall/sequential/NASNet/separable_conv_2_reduction_right1_stem_2/separable_conv2d/ReadVariableOp", "op": "Const", "attr": {"value": {"tensor": {"dtype": "DT_FLOAT", "tensorShape": {"dim": [{"size": "7"}, {"size": "7"}, {"size": "22"}, {"size": "1"}]}}}, "dtype": {"type": "DT_FLOAT"}}}, {"name": "StatefulPartitionedCall/sequential/NASNet/separable_conv_1_reduction_left4_stem_2/separable_conv2d/ReadVariableOp", "op": "Const", "attr": {"value": {"tensor": {"dtype": "DT_FLOAT", "tensorShape": {"dim": [{"size": "3"}, {"size": "3"}, {"size": "22"}, {"size": "1"}]}}}, "dtype": {"type": "DT_FLOAT"}}}, {"name": "StatefulPartitionedCall/sequential/NASNet/separable_conv_2_reduction_left4_stem_2/separable_conv2d/ReadVariableOp", "op": "Const", "attr": {"value": {"tensor": {"dtype": "DT_FLOAT", "tensorShape": {"dim": [{"size": "3"}, {"size": "3"}, {"size": "22"}, {"size": "1"}]}}}, "dtype": {"type": "DT_FLOAT"}}}, {"name": "StatefulPartitionedCall/sequential/NASNet/separable_conv_1_pad_reduction_right3_stem_1/Pad/paddings", "op": "Const", "attr": {"value": {"tensor": {"dtype": "DT_INT32", "tensorShape": {"dim": [{"size": "4"}, {"size": "2"}]}}}, "dtype": {"type": "DT_INT32"}}}, {"name": "StatefulPartitionedCall/sequential/NASNet/separable_conv_1_reduction_right3_stem_1/separable_conv2d/ReadVariableOp", "op": "Const", "attr": {"value": {"tensor": {"dtype": "DT_FLOAT", "tensorShape": {"dim": [{"size": "5"}, {"size": "5"}, {"size": "32"}, {"size": "1"}]}}}, "dtype": {"type": "DT_FLOAT"}}}, {"name": "StatefulPartitionedCall/sequential/NASNet/separable_conv_2_reduction_right3_stem_1/separable_conv2d/ReadVariableOp", "op": "Const", "attr": {"value": {"tensor": {"dtype": "DT_FLOAT", "tensorShape": {"dim": [{"size": "5"}, {"size": "5"}, {"size": "11"}, {"size": "1"}]}}}, "dtype": {"type": "DT_FLOAT"}}}, {"name": "StatefulPartitionedCall/sequential/NASNet/separable_conv_1_pad_reduction_right2_stem_1/Pad/paddings", "op": "Const", "attr": {"value": {"tensor": {"dtype": "DT_INT32", "tensorShape": {"dim": [{"size": "4"}, {"size": "2"}]}}}, "dtype": {"type": "DT_INT32"}}}, {"name": "StatefulPartitionedCall/sequential/NASNet/separable_conv_1_reduction_right2_stem_1/separable_conv2d/ReadVariableOp", "op": "Const", "attr": {"value": {"tensor": {"dtype": "DT_FLOAT", "tensorShape": {"dim": [{"size": "7"}, {"size": "7"}, {"size": "32"}, {"size": "1"}]}}}, "dtype": {"type": "DT_FLOAT"}}}, {"name": "StatefulPartitionedCall/sequential/NASNet/separable_conv_2_reduction_right2_stem_1/separable_conv2d/ReadVariableOp", "op": "Const", "attr": {"value": {"tensor": {"dtype": "DT_FLOAT", "tensorShape": {"dim": [{"size": "7"}, {"size": "7"}, {"size": "11"}, {"size": "1"}]}}}, "dtype": {"type": "DT_FLOAT"}}}, {"name": "StatefulPartitionedCall/sequential/NASNet/separable_conv_1_pad_reduction_left1_stem_1/Pad/paddings", "op": "Const", "attr": {"value": {"tensor": {"dtype": "DT_INT32", "tensorShape": {"dim": [{"size": "4"}, {"size": "2"}]}}}, "dtype": {"type": "DT_INT32"}}}, {"name": "StatefulPartitionedCall/sequential/NASNet/separable_conv_1_reduction_left1_stem_1/separable_conv2d/ReadVariableOp", "op": "Const", "attr": {"value": {"tensor": {"dtype": "DT_FLOAT", "tensorShape": {"dim": [{"size": "5"}, {"size": "5"}, {"size": "11"}, {"size": "1"}]}}}, "dtype": {"type": "DT_FLOAT"}}}, {"name": "StatefulPartitionedCall/sequential/NASNet/separable_conv_2_reduction_left1_stem_1/separable_conv2d/ReadVariableOp", "op": "Const", "attr": {"value": {"tensor": {"dtype": "DT_FLOAT", "tensorShape": {"dim": [{"size": "5"}, {"size": "5"}, {"size": "11"}, {"size": "1"}]}}}, "dtype": {"type": "DT_FLOAT"}}}, {"name": "StatefulPartitionedCall/sequential/NASNet/separable_conv_1_pad_reduction_right1_stem_1/Pad/paddings", "op": "Const", "attr": {"value": {"tensor": {"dtype": "DT_INT32", "tensorShape": {"dim": [{"size": "4"}, {"size": "2"}]}}}, "dtype": {"type": "DT_INT32"}}}, {"name": "StatefulPartitionedCall/sequential/NASNet/separable_conv_1_reduction_right1_stem_1/separable_conv2d/ReadVariableOp", "op": "Const", "attr": {"value": {"tensor": {"dtype": "DT_FLOAT", "tensorShape": {"dim": [{"size": "7"}, {"size": "7"}, {"size": "32"}, {"size": "1"}]}}}, "dtype": {"type": "DT_FLOAT"}}}, {"name": "StatefulPartitionedCall/sequential/NASNet/separable_conv_2_reduction_right1_stem_1/separable_conv2d/ReadVariableOp", "op": "Const", "attr": {"value": {"tensor": {"dtype": "DT_FLOAT", "tensorShape": {"dim": [{"size": "7"}, {"size": "7"}, {"size": "11"}, {"size": "1"}]}}}, "dtype": {"type": "DT_FLOAT"}}}, {"name": "StatefulPartitionedCall/sequential/NASNet/separable_conv_1_reduction_left4_stem_1/separable_conv2d/ReadVariableOp", "op": "Const", "attr": {"value": {"tensor": {"dtype": "DT_FLOAT", "tensorShape": {"dim": [{"size": "3"}, {"size": "3"}, {"size": "11"}, {"size": "1"}]}}}, "dtype": {"type": "DT_FLOAT"}}}, {"name": "StatefulPartitionedCall/sequential/NASNet/separable_conv_2_reduction_left4_stem_1/separable_conv2d/ReadVariableOp", "op": "Const", "attr": {"value": {"tensor": {"dtype": "DT_FLOAT", "tensorShape": {"dim": [{"size": "3"}, {"size": "3"}, {"size": "11"}, {"size": "1"}]}}}, "dtype": {"type": "DT_FLOAT"}}}, {"name": "StatefulPartitionedCall/sequential/NASNet/reduction_pad_1_stem_1/Pad/paddings", "op": "Const", "attr": {"value": {"tensor": {"dtype": "DT_INT32", "tensorShape": {"dim": [{"size": "4"}, {"size": "2"}]}}}, "dtype": {"type": "DT_INT32"}}}, {"name": "StatefulPartitionedCall/sequential/NASNet/reduction_concat_stem_1/concat/axis", "op": "Const", "attr": {"value": {"tensor": {"dtype": "DT_INT32", "tensorShape": {}}}, "dtype": {"type": "DT_INT32"}}}, {"name": "StatefulPartitionedCall/sequential/NASNet/reduction_pad_1_stem_2/Pad/paddings", "op": "Const", "attr": {"value": {"tensor": {"dtype": "DT_INT32", "tensorShape": {"dim": [{"size": "4"}, {"size": "2"}]}}}, "dtype": {"type": "DT_INT32"}}}, {"name": "StatefulPartitionedCall/sequential/NASNet/reduction_concat_stem_2/concat/axis", "op": "Const", "attr": {"value": {"tensor": {"dtype": "DT_INT32", "tensorShape": {}}}, "dtype": {"type": "DT_INT32"}}}, {"name": "StatefulPartitionedCall/sequential/NASNet/normal_concat_0/concat/axis", "op": "Const", "attr": {"value": {"tensor": {"dtype": "DT_INT32", "tensorShape": {}}}, "dtype": {"type": "DT_INT32"}}}, {"name": "StatefulPartitionedCall/sequential/NASNet/normal_concat_1/concat/axis", "op": "Const", "attr": {"value": {"tensor": {"dtype": "DT_INT32", "tensorShape": {}}}, "dtype": {"type": "DT_INT32"}}}, {"name": "StatefulPartitionedCall/sequential/NASNet/normal_concat_2/concat/axis", "op": "Const", "attr": {"value": {"tensor": {"dtype": "DT_INT32", "tensorShape": {}}}, "dtype": {"type": "DT_INT32"}}}, {"name": "StatefulPartitionedCall/sequential/NASNet/normal_concat_3/concat/axis", "op": "Const", "attr": {"value": {"tensor": {"dtype": "DT_INT32", "tensorShape": {}}}, "dtype": {"type": "DT_INT32"}}}, {"name": "StatefulPartitionedCall/sequential/NASNet/reduction_pad_1_reduce_4/Pad/paddings", "op": "Const", "attr": {"value": {"tensor": {"dtype": "DT_INT32", "tensorShape": {"dim": [{"size": "4"}, {"size": "2"}]}}}, "dtype": {"type": "DT_INT32"}}}, {"name": "StatefulPartitionedCall/sequential/NASNet/reduction_concat_reduce_4/concat/axis", "op": "Const", "attr": {"value": {"tensor": {"dtype": "DT_INT32", "tensorShape": {}}}, "dtype": {"type": "DT_INT32"}}}, {"name": "StatefulPartitionedCall/sequential/NASNet/normal_concat_5/concat/axis", "op": "Const", "attr": {"value": {"tensor": {"dtype": "DT_INT32", "tensorShape": {}}}, "dtype": {"type": "DT_INT32"}}}, {"name": "StatefulPartitionedCall/sequential/NASNet/normal_concat_6/concat/axis", "op": "Const", "attr": {"value": {"tensor": {"dtype": "DT_INT32", "tensorShape": {}}}, "dtype": {"type": "DT_INT32"}}}, {"name": "StatefulPartitionedCall/sequential/NASNet/normal_concat_7/concat/axis", "op": "Const", "attr": {"value": {"tensor": {"dtype": "DT_INT32", "tensorShape": {}}}, "dtype": {"type": "DT_INT32"}}}, {"name": "StatefulPartitionedCall/sequential/NASNet/normal_concat_8/concat/axis", "op": "Const", "attr": {"value": {"tensor": {"dtype": "DT_INT32", "tensorShape": {}}}, "dtype": {"type": "DT_INT32"}}}, {"name": "StatefulPartitionedCall/sequential/NASNet/reduction_pad_1_reduce_8/Pad/paddings", "op": "Const", "attr": {"value": {"tensor": {"dtype": "DT_INT32", "tensorShape": {"dim": [{"size": "4"}, {"size": "2"}]}}}, "dtype": {"type": "DT_INT32"}}}, {"name": "StatefulPartitionedCall/sequential/NASNet/reduction_concat_reduce_8/concat/axis", "op": "Const", "attr": {"value": {"tensor": {"dtype": "DT_INT32", "tensorShape": {}}}, "dtype": {"type": "DT_INT32"}}}, {"name": "StatefulPartitionedCall/sequential/NASNet/normal_concat_9/concat/axis", "op": "Const", "attr": {"value": {"tensor": {"dtype": "DT_INT32", "tensorShape": {}}}, "dtype": {"type": "DT_INT32"}}}, {"name": "StatefulPartitionedCall/sequential/NASNet/normal_concat_10/concat/axis", "op": "Const", "attr": {"value": {"tensor": {"dtype": "DT_INT32", "tensorShape": {}}}, "dtype": {"type": "DT_INT32"}}}, {"name": "StatefulPartitionedCall/sequential/NASNet/normal_concat_11/concat/axis", "op": "Const", "attr": {"value": {"tensor": {"dtype": "DT_INT32", "tensorShape": {}}}, "dtype": {"type": "DT_INT32"}}}, {"name": "StatefulPartitionedCall/sequential/NASNet/normal_concat_12/concat/axis", "op": "Const", "attr": {"value": {"tensor": {"dtype": "DT_INT32", "tensorShape": {}}}, "dtype": {"type": "DT_INT32"}}}, {"name": "StatefulPartitionedCall/sequential/NASNet/global_max_pooling2d/Max/reduction_indices", "op": "Const", "attr": {"value": {"tensor": {"dtype": "DT_INT32", "tensorShape": {"dim": [{"size": "2"}]}}}, "dtype": {"type": "DT_INT32"}}}, {"name": "StatefulPartitionedCall/sequential/dense/MatMul/ReadVariableOp", "op": "Const", "attr": {"value": {"tensor": {"dtype": "DT_FLOAT", "tensorShape": {"dim": [{"size": "1056"}, {"size": "224"}]}}}, "dtype": {"type": "DT_FLOAT"}}}, {"name": "StatefulPartitionedCall/sequential/dense/BiasAdd/ReadVariableOp", "op": "Const", "attr": {"value": {"tensor": {"dtype": "DT_FLOAT", "tensorShape": {"dim": [{"size": "224"}]}}}, "dtype": {"type": "DT_FLOAT"}}}, {"name": "StatefulPartitionedCall/sequential/dense_1/MatMul/ReadVariableOp", "op": "Const", "attr": {"value": {"tensor": {"dtype": "DT_FLOAT", "tensorShape": {"dim": [{"size": "224"}, {"size": "224"}]}}}, "dtype": {"type": "DT_FLOAT"}}}, {"name": "StatefulPartitionedCall/sequential/dense_1/BiasAdd/ReadVariableOp", "op": "Const", "attr": {"value": {"tensor": {"dtype": "DT_FLOAT", "tensorShape": {"dim": [{"size": "224"}]}}}, "dtype": {"type": "DT_FLOAT"}}}, {"name": "StatefulPartitionedCall/sequential/dense_2/MatMul/ReadVariableOp", "op": "Const", "attr": {"value": {"tensor": {"dtype": "DT_FLOAT", "tensorShape": {"dim": [{"size": "224"}, {"size": "1"}]}}}, "dtype": {"type": "DT_FLOAT"}}}, {"name": "StatefulPartitionedCall/sequential/dense_2/BiasAdd/ReadVariableOp", "op": "Const", "attr": {"value": {"tensor": {"dtype": "DT_FLOAT", "tensorShape": {"dim": [{"size": "1"}]}}}, "dtype": {"type": "DT_FLOAT"}}}, {"name": "nasnet_input", "op": "Placeholder", "attr": {"shape": {"shape": {"dim": [{"size": "-1"}, {"size": "224"}, {"size": "224"}, {"size": "3"}]}}, "dtype": {"type": "DT_FLOAT"}}}, {"name": "StatefulPartitionedCall/sequential/NASNet/stem_conv1/Conv2D_weights", "op": "Const", "attr": {"value": {"tensor": {"dtype": "DT_FLOAT", "tensorShape": {"dim": [{"size": "3"}, {"size": "3"}, {"size": "3"}, {"size": "32"}]}}}, "dtype": {"type": "DT_FLOAT"}}}, {"name": "StatefulPartitionedCall/sequential/NASNet/separable_conv_1_normal_left5_12/separable_conv2d_weights", "op": "Const", "attr": {"value": {"tensor": {"dtype": "DT_FLOAT", "tensorShape": {"dim": [{"size": "1"}, {"size": "1"}, {"size": "176"}, {"size": "176"}]}}}, "dtype": {"type": "DT_FLOAT"}}}, {"name": "StatefulPartitionedCall/sequential/NASNet/stem_conv1/Conv2D_bn_offset", "op": "Const", "attr": {"value": {"tensor": {"dtype": "DT_FLOAT", "tensorShape": {"dim": [{"size": "32"}]}}}, "dtype": {"type": "DT_FLOAT"}}}, {"name": "StatefulPartitionedCall/sequential/NASNet/reduction_conv_1_stem_1/Conv2D_weights", "op": "Const", "attr": {"value": {"tensor": {"dtype": "DT_FLOAT", "tensorShape": {"dim": [{"size": "1"}, {"size": "1"}, {"size": "32"}, {"size": "11"}]}}}, "dtype": {"type": "DT_FLOAT"}}}, {"name": "StatefulPartitionedCall/sequential/NASNet/separable_conv_1_normal_right2_10/separable_conv2d_bn_offset", "op": "Const", "attr": {"value": {"tensor": {"dtype": "DT_FLOAT", "tensorShape": {"dim": [{"size": "176"}]}}}, "dtype": {"type": "DT_FLOAT"}}}, {"name": "StatefulPartitionedCall/sequential/NASNet/reduction_conv_1_stem_1/Conv2D_bn_offset", "op": "Const", "attr": {"value": {"tensor": {"dtype": "DT_FLOAT", "tensorShape": {"dim": [{"size": "11"}]}}}, "dtype": {"type": "DT_FLOAT"}}}, {"name": "StatefulPartitionedCall/sequential/NASNet/separable_conv_1_reduction_right3_stem_1/separable_conv2d_weights", "op": "Const", "attr": {"value": {"tensor": {"dtype": "DT_FLOAT", "tensorShape": {"dim": [{"size": "1"}, {"size": "1"}, {"size": "32"}, {"size": "11"}]}}}, "dtype": {"type": "DT_FLOAT"}}}, {"name": "StatefulPartitionedCall/sequential/NASNet/separable_conv_1_reduction_right3_stem_1/separable_conv2d_bn_offset", "op": "Const", "attr": {"value": {"tensor": {"dtype": "DT_FLOAT", "tensorShape": {"dim": [{"size": "11"}]}}}, "dtype": {"type": "DT_FLOAT"}}}, {"name": "StatefulPartitionedCall/sequential/NASNet/separable_conv_1_reduction_right2_stem_1/separable_conv2d_weights", "op": "Const", "attr": {"value": {"tensor": {"dtype": "DT_FLOAT", "tensorShape": {"dim": [{"size": "1"}, {"size": "1"}, {"size": "32"}, {"size": "11"}]}}}, "dtype": {"type": "DT_FLOAT"}}}, {"name": "StatefulPartitionedCall/sequential/NASNet/separable_conv_1_reduction_right2_stem_1/separable_conv2d_bn_offset", "op": "Const", "attr": {"value": {"tensor": {"dtype": "DT_FLOAT", "tensorShape": {"dim": [{"size": "11"}]}}}, "dtype": {"type": "DT_FLOAT"}}}, {"name": "StatefulPartitionedCall/sequential/NASNet/separable_conv_1_normal_left1_9/separable_conv2d_weights", "op": "Const", "attr": {"value": {"tensor": {"dtype": "DT_FLOAT", "tensorShape": {"dim": [{"size": "1"}, {"size": "1"}, {"size": "176"}, {"size": "176"}]}}}, "dtype": {"type": "DT_FLOAT"}}}, {"name": "StatefulPartitionedCall/sequential/NASNet/separable_conv_1_reduction_right1_stem_1/separable_conv2d_weights", "op": "Const", "attr": {"value": {"tensor": {"dtype": "DT_FLOAT", "tensorShape": {"dim": [{"size": "1"}, {"size": "1"}, {"size": "32"}, {"size": "11"}]}}}, "dtype": {"type": "DT_FLOAT"}}}, {"name": "StatefulPartitionedCall/sequential/NASNet/separable_conv_1_normal_left5_12/separable_conv2d_bn_offset", "op": "Const", "attr": {"value": {"tensor": {"dtype": "DT_FLOAT", "tensorShape": {"dim": [{"size": "176"}]}}}, "dtype": {"type": "DT_FLOAT"}}}, {"name": "StatefulPartitionedCall/sequential/NASNet/separable_conv_1_reduction_right1_stem_1/separable_conv2d_bn_offset", "op": "Const", "attr": {"value": {"tensor": {"dtype": "DT_FLOAT", "tensorShape": {"dim": [{"size": "11"}]}}}, "dtype": {"type": "DT_FLOAT"}}}, {"name": "StatefulPartitionedCall/sequential/NASNet/separable_conv_1_normal_left1_9/separable_conv2d_bn_offset", "op": "Const", "attr": {"value": {"tensor": {"dtype": "DT_FLOAT", "tensorShape": {"dim": [{"size": "176"}]}}}, "dtype": {"type": "DT_FLOAT"}}}, {"name": "StatefulPartitionedCall/sequential/NASNet/separable_conv_1_reduction_left1_stem_1/separable_conv2d_weights", "op": "Const", "attr": {"value": {"tensor": {"dtype": "DT_FLOAT", "tensorShape": {"dim": [{"size": "1"}, {"size": "1"}, {"size": "11"}, {"size": "11"}]}}}, "dtype": {"type": "DT_FLOAT"}}}, {"name": "StatefulPartitionedCall/sequential/NASNet/adjust_bn_0/FusedBatchNormV3/Offset", "op": "Const", "attr": {"value": {"tensor": {"dtype": "DT_FLOAT", "tensorShape": {"dim": [{"size": "44"}]}}}, "dtype": {"type": "DT_FLOAT"}}}, {"name": "StatefulPartitionedCall/sequential/NASNet/separable_conv_1_reduction_left1_stem_1/separable_conv2d_bn_offset", "op": "Const", "attr": {"value": {"tensor": {"dtype": "DT_FLOAT", "tensorShape": {"dim": [{"size": "11"}]}}}, "dtype": {"type": "DT_FLOAT"}}}, {"name": "StatefulPartitionedCall/sequential/NASNet/separable_conv_2_reduction_right3_stem_1/separable_conv2d_weights", "op": "Const", "attr": {"value": {"tensor": {"dtype": "DT_FLOAT", "tensorShape": {"dim": [{"size": "1"}, {"size": "1"}, {"size": "11"}, {"size": "11"}]}}}, "dtype": {"type": "DT_FLOAT"}}}, {"name": "StatefulPartitionedCall/sequential/NASNet/separable_conv_2_reduction_right3_stem_1/separable_conv2d_bn_offset", "op": "Const", "attr": {"value": {"tensor": {"dtype": "DT_FLOAT", "tensorShape": {"dim": [{"size": "11"}]}}}, "dtype": {"type": "DT_FLOAT"}}}, {"name": "StatefulPartitionedCall/sequential/NASNet/separable_conv_2_reduction_right2_stem_1/separable_conv2d_weights", "op": "Const", "attr": {"value": {"tensor": {"dtype": "DT_FLOAT", "tensorShape": {"dim": [{"size": "1"}, {"size": "1"}, {"size": "11"}, {"size": "11"}]}}}, "dtype": {"type": "DT_FLOAT"}}}, {"name": "StatefulPartitionedCall/sequential/NASNet/separable_conv_1_normal_left5_9/separable_conv2d_weights", "op": "Const", "attr": {"value": {"tensor": {"dtype": "DT_FLOAT", "tensorShape": {"dim": [{"size": "1"}, {"size": "1"}, {"size": "176"}, {"size": "176"}]}}}, "dtype": {"type": "DT_FLOAT"}}}, {"name": "StatefulPartitionedCall/sequential/NASNet/separable_conv_2_reduction_right2_stem_1/separable_conv2d_bn_offset", "op": "Const", "attr": {"value": {"tensor": {"dtype": "DT_FLOAT", "tensorShape": {"dim": [{"size": "11"}]}}}, "dtype": {"type": "DT_FLOAT"}}}, {"name": "StatefulPartitionedCall/sequential/NASNet/separable_conv_2_reduction_right1_stem_1/separable_conv2d_weights", "op": "Const", "attr": {"value": {"tensor": {"dtype": "DT_FLOAT", "tensorShape": {"dim": [{"size": "1"}, {"size": "1"}, {"size": "11"}, {"size": "11"}]}}}, "dtype": {"type": "DT_FLOAT"}}}, {"name": "StatefulPartitionedCall/sequential/NASNet/separable_conv_2_reduction_right1_stem_1/separable_conv2d_bn_offset", "op": "Const", "attr": {"value": {"tensor": {"dtype": "DT_FLOAT", "tensorShape": {"dim": [{"size": "11"}]}}}, "dtype": {"type": "DT_FLOAT"}}}, {"name": "StatefulPartitionedCall/sequential/NASNet/separable_conv_1_reduction_right3_stem_2/separable_conv2d_weights", "op": "Const", "attr": {"value": {"tensor": {"dtype": "DT_FLOAT", "tensorShape": {"dim": [{"size": "1"}, {"size": "1"}, {"size": "22"}, {"size": "22"}]}}}, "dtype": {"type": "DT_FLOAT"}}}, {"name": "StatefulPartitionedCall/sequential/NASNet/separable_conv_1_normal_left5_9/separable_conv2d_bn_offset", "op": "Const", "attr": {"value": {"tensor": {"dtype": "DT_FLOAT", "tensorShape": {"dim": [{"size": "176"}]}}}, "dtype": {"type": "DT_FLOAT"}}}, {"name": "StatefulPartitionedCall/sequential/NASNet/separable_conv_1_reduction_right3_stem_2/separable_conv2d_bn_offset", "op": "Const", "attr": {"value": {"tensor": {"dtype": "DT_FLOAT", "tensorShape": {"dim": [{"size": "22"}]}}}, "dtype": {"type": "DT_FLOAT"}}}, {"name": "StatefulPartitionedCall/sequential/NASNet/separable_conv_1_reduction_right2_stem_2/separable_conv2d_weights", "op": "Const", "attr": {"value": {"tensor": {"dtype": "DT_FLOAT", "tensorShape": {"dim": [{"size": "1"}, {"size": "1"}, {"size": "22"}, {"size": "22"}]}}}, "dtype": {"type": "DT_FLOAT"}}}, {"name": "StatefulPartitionedCall/sequential/NASNet/separable_conv_1_reduction_right2_stem_2/separable_conv2d_bn_offset", "op": "Const", "attr": {"value": {"tensor": {"dtype": "DT_FLOAT", "tensorShape": {"dim": [{"size": "22"}]}}}, "dtype": {"type": "DT_FLOAT"}}}, {"name": "StatefulPartitionedCall/sequential/NASNet/separable_conv_1_reduction_right1_stem_2/separable_conv2d_weights", "op": "Const", "attr": {"value": {"tensor": {"dtype": "DT_FLOAT", "tensorShape": {"dim": [{"size": "1"}, {"size": "1"}, {"size": "22"}, {"size": "22"}]}}}, "dtype": {"type": "DT_FLOAT"}}}, {"name": "StatefulPartitionedCall/sequential/NASNet/separable_conv_2_normal_right1_10/separable_conv2d_weights", "op": "Const", "attr": {"value": {"tensor": {"dtype": "DT_FLOAT", "tensorShape": {"dim": [{"size": "1"}, {"size": "1"}, {"size": "176"}, {"size": "176"}]}}}, "dtype": {"type": "DT_FLOAT"}}}, {"name": "StatefulPartitionedCall/sequential/NASNet/separable_conv_1_reduction_right1_stem_2/separable_conv2d_bn_offset", "op": "Const", "attr": {"value": {"tensor": {"dtype": "DT_FLOAT", "tensorShape": {"dim": [{"size": "22"}]}}}, "dtype": {"type": "DT_FLOAT"}}}, {"name": "StatefulPartitionedCall/sequential/NASNet/separable_conv_2_normal_left1_12/separable_conv2d_weights", "op": "Const", "attr": {"value": {"tensor": {"dtype": "DT_FLOAT", "tensorShape": {"dim": [{"size": "1"}, {"size": "1"}, {"size": "176"}, {"size": "176"}]}}}, "dtype": {"type": "DT_FLOAT"}}}, {"name": "StatefulPartitionedCall/sequential/NASNet/separable_conv_2_reduction_left1_stem_1/separable_conv2d_weights", "op": "Const", "attr": {"value": {"tensor": {"dtype": "DT_FLOAT", "tensorShape": {"dim": [{"size": "1"}, {"size": "1"}, {"size": "11"}, {"size": "11"}]}}}, "dtype": {"type": "DT_FLOAT"}}}, {"name": "StatefulPartitionedCall/sequential/NASNet/separable_conv_2_normal_right1_10/separable_conv2d_bn_offset", "op": "Const", "attr": {"value": {"tensor": {"dtype": "DT_FLOAT", "tensorShape": {"dim": [{"size": "176"}]}}}, "dtype": {"type": "DT_FLOAT"}}}, {"name": "StatefulPartitionedCall/sequential/NASNet/separable_conv_2_reduction_left1_stem_1/separable_conv2d_bn_offset", "op": "Const", "attr": {"value": {"tensor": {"dtype": "DT_FLOAT", "tensorShape": {"dim": [{"size": "11"}]}}}, "dtype": {"type": "DT_FLOAT"}}}, {"name": "StatefulPartitionedCall/sequential/NASNet/separable_conv_2_reduction_right3_stem_2/separable_conv2d_weights", "op": "Const", "attr": {"value": {"tensor": {"dtype": "DT_FLOAT", "tensorShape": {"dim": [{"size": "1"}, {"size": "1"}, {"size": "22"}, {"size": "22"}]}}}, "dtype": {"type": "DT_FLOAT"}}}, {"name": "StatefulPartitionedCall/sequential/NASNet/separable_conv_2_reduction_right3_stem_2/separable_conv2d_bn_offset", "op": "Const", "attr": {"value": {"tensor": {"dtype": "DT_FLOAT", "tensorShape": {"dim": [{"size": "22"}]}}}, "dtype": {"type": "DT_FLOAT"}}}, {"name": "StatefulPartitionedCall/sequential/NASNet/separable_conv_2_reduction_right2_stem_2/separable_conv2d_weights", "op": "Const", "attr": {"value": {"tensor": {"dtype": "DT_FLOAT", "tensorShape": {"dim": [{"size": "1"}, {"size": "1"}, {"size": "22"}, {"size": "22"}]}}}, "dtype": {"type": "DT_FLOAT"}}}, {"name": "StatefulPartitionedCall/sequential/NASNet/separable_conv_2_normal_left2_10/separable_conv2d_weights", "op": "Const", "attr": {"value": {"tensor": {"dtype": "DT_FLOAT", "tensorShape": {"dim": [{"size": "1"}, {"size": "1"}, {"size": "176"}, {"size": "176"}]}}}, "dtype": {"type": "DT_FLOAT"}}}, {"name": "StatefulPartitionedCall/sequential/NASNet/separable_conv_2_reduction_right2_stem_2/separable_conv2d_bn_offset", "op": "Const", "attr": {"value": {"tensor": {"dtype": "DT_FLOAT", "tensorShape": {"dim": [{"size": "22"}]}}}, "dtype": {"type": "DT_FLOAT"}}}, {"name": "StatefulPartitionedCall/sequential/NASNet/separable_conv_2_reduction_right1_stem_2/separable_conv2d_weights", "op": "Const", "attr": {"value": {"tensor": {"dtype": "DT_FLOAT", "tensorShape": {"dim": [{"size": "1"}, {"size": "1"}, {"size": "22"}, {"size": "22"}]}}}, "dtype": {"type": "DT_FLOAT"}}}, {"name": "StatefulPartitionedCall/sequential/NASNet/separable_conv_2_reduction_right1_stem_2/separable_conv2d_bn_offset", "op": "Const", "attr": {"value": {"tensor": {"dtype": "DT_FLOAT", "tensorShape": {"dim": [{"size": "22"}]}}}, "dtype": {"type": "DT_FLOAT"}}}, {"name": "StatefulPartitionedCall/sequential/NASNet/separable_conv_1_reduction_left4_stem_1/separable_conv2d_weights", "op": "Const", "attr": {"value": {"tensor": {"dtype": "DT_FLOAT", "tensorShape": {"dim": [{"size": "1"}, {"size": "1"}, {"size": "11"}, {"size": "11"}]}}}, "dtype": {"type": "DT_FLOAT"}}}, {"name": "StatefulPartitionedCall/sequential/NASNet/separable_conv_2_normal_left2_10/separable_conv2d_bn_offset", "op": "Const", "attr": {"value": {"tensor": {"dtype": "DT_FLOAT", "tensorShape": {"dim": [{"size": "176"}]}}}, "dtype": {"type": "DT_FLOAT"}}}, {"name": "StatefulPartitionedCall/sequential/NASNet/separable_conv_1_reduction_left4_stem_1/separable_conv2d_bn_offset", "op": "Const", "attr": {"value": {"tensor": {"dtype": "DT_FLOAT", "tensorShape": {"dim": [{"size": "11"}]}}}, "dtype": {"type": "DT_FLOAT"}}}, {"name": "StatefulPartitionedCall/sequential/NASNet/separable_conv_2_reduction_left4_stem_1/separable_conv2d_weights", "op": "Const", "attr": {"value": {"tensor": {"dtype": "DT_FLOAT", "tensorShape": {"dim": [{"size": "1"}, {"size": "1"}, {"size": "11"}, {"size": "11"}]}}}, "dtype": {"type": "DT_FLOAT"}}}, {"name": "StatefulPartitionedCall/sequential/NASNet/separable_conv_2_normal_right2_10/separable_conv2d_weights", "op": "Const", "attr": {"value": {"tensor": {"dtype": "DT_FLOAT", "tensorShape": {"dim": [{"size": "1"}, {"size": "1"}, {"size": "176"}, {"size": "176"}]}}}, "dtype": {"type": "DT_FLOAT"}}}, {"name": "StatefulPartitionedCall/sequential/NASNet/separable_conv_2_reduction_left4_stem_1/separable_conv2d_bn_offset", "op": "Const", "attr": {"value": {"tensor": {"dtype": "DT_FLOAT", "tensorShape": {"dim": [{"size": "11"}]}}}, "dtype": {"type": "DT_FLOAT"}}}, {"name": "StatefulPartitionedCall/sequential/NASNet/reduction_conv_1_stem_2/Conv2D_weights", "op": "Const", "attr": {"value": {"tensor": {"dtype": "DT_FLOAT", "tensorShape": {"dim": [{"size": "1"}, {"size": "1"}, {"size": "44"}, {"size": "22"}]}}}, "dtype": {"type": "DT_FLOAT"}}}, {"name": "StatefulPartitionedCall/sequential/NASNet/separable_conv_2_normal_left1_12/separable_conv2d_bn_offset", "op": "Const", "attr": {"value": {"tensor": {"dtype": "DT_FLOAT", "tensorShape": {"dim": [{"size": "176"}]}}}, "dtype": {"type": "DT_FLOAT"}}}, {"name": "StatefulPartitionedCall/sequential/NASNet/reduction_conv_1_stem_2/Conv2D_bn_offset", "op": "Const", "attr": {"value": {"tensor": {"dtype": "DT_FLOAT", "tensorShape": {"dim": [{"size": "22"}]}}}, "dtype": {"type": "DT_FLOAT"}}}, {"name": "StatefulPartitionedCall/sequential/NASNet/separable_conv_1_reduction_left1_stem_2/separable_conv2d_weights", "op": "Const", "attr": {"value": {"tensor": {"dtype": "DT_FLOAT", "tensorShape": {"dim": [{"size": "1"}, {"size": "1"}, {"size": "22"}, {"size": "22"}]}}}, "dtype": {"type": "DT_FLOAT"}}}, {"name": "StatefulPartitionedCall/sequential/NASNet/separable_conv_2_normal_right2_10/separable_conv2d_bn_offset", "op": "Const", "attr": {"value": {"tensor": {"dtype": "DT_FLOAT", "tensorShape": {"dim": [{"size": "176"}]}}}, "dtype": {"type": "DT_FLOAT"}}}, {"name": "StatefulPartitionedCall/sequential/NASNet/separable_conv_1_reduction_left1_stem_2/separable_conv2d_bn_offset", "op": "Const", "attr": {"value": {"tensor": {"dtype": "DT_FLOAT", "tensorShape": {"dim": [{"size": "22"}]}}}, "dtype": {"type": "DT_FLOAT"}}}, {"name": "StatefulPartitionedCall/sequential/NASNet/separable_conv_1_normal_right1_0/separable_conv2d_weights", "op": "Const", "attr": {"value": {"tensor": {"dtype": "DT_FLOAT", "tensorShape": {"dim": [{"size": "1"}, {"size": "1"}, {"size": "44"}, {"size": "44"}]}}}, "dtype": {"type": "DT_FLOAT"}}}, {"name": "StatefulPartitionedCall/sequential/NASNet/separable_conv_1_normal_right1_0/separable_conv2d_bn_offset", "op": "Const", "attr": {"value": {"tensor": {"dtype": "DT_FLOAT", "tensorShape": {"dim": [{"size": "44"}]}}}, "dtype": {"type": "DT_FLOAT"}}}, {"name": "StatefulPartitionedCall/sequential/NASNet/separable_conv_2_normal_left1_9/separable_conv2d_weights", "op": "Const", "attr": {"value": {"tensor": {"dtype": "DT_FLOAT", "tensorShape": {"dim": [{"size": "1"}, {"size": "1"}, {"size": "176"}, {"size": "176"}]}}}, "dtype": {"type": "DT_FLOAT"}}}, {"name": "StatefulPartitionedCall/sequential/NASNet/separable_conv_1_normal_left2_0/separable_conv2d_weights", "op": "Const", "attr": {"value": {"tensor": {"dtype": "DT_FLOAT", "tensorShape": {"dim": [{"size": "1"}, {"size": "1"}, {"size": "44"}, {"size": "44"}]}}}, "dtype": {"type": "DT_FLOAT"}}}, {"name": "StatefulPartitionedCall/sequential/NASNet/separable_conv_1_normal_left2_0/separable_conv2d_bn_offset", "op": "Const", "attr": {"value": {"tensor": {"dtype": "DT_FLOAT", "tensorShape": {"dim": [{"size": "44"}]}}}, "dtype": {"type": "DT_FLOAT"}}}, {"name": "StatefulPartitionedCall/sequential/NASNet/separable_conv_2_normal_left1_9/separable_conv2d_bn_offset", "op": "Const", "attr": {"value": {"tensor": {"dtype": "DT_FLOAT", "tensorShape": {"dim": [{"size": "176"}]}}}, "dtype": {"type": "DT_FLOAT"}}}, {"name": "StatefulPartitionedCall/sequential/NASNet/separable_conv_1_normal_right2_0/separable_conv2d_weights", "op": "Const", "attr": {"value": {"tensor": {"dtype": "DT_FLOAT", "tensorShape": {"dim": [{"size": "1"}, {"size": "1"}, {"size": "44"}, {"size": "44"}]}}}, "dtype": {"type": "DT_FLOAT"}}}, {"name": "StatefulPartitionedCall/sequential/NASNet/separable_conv_1_normal_right2_0/separable_conv2d_bn_offset", "op": "Const", "attr": {"value": {"tensor": {"dtype": "DT_FLOAT", "tensorShape": {"dim": [{"size": "44"}]}}}, "dtype": {"type": "DT_FLOAT"}}}, {"name": "StatefulPartitionedCall/sequential/NASNet/separable_conv_2_reduction_left1_stem_2/separable_conv2d_weights", "op": "Const", "attr": {"value": {"tensor": {"dtype": "DT_FLOAT", "tensorShape": {"dim": [{"size": "1"}, {"size": "1"}, {"size": "22"}, {"size": "22"}]}}}, "dtype": {"type": "DT_FLOAT"}}}, {"name": "StatefulPartitionedCall/sequential/NASNet/separable_conv_2_normal_left5_9/separable_conv2d_weights", "op": "Const", "attr": {"value": {"tensor": {"dtype": "DT_FLOAT", "tensorShape": {"dim": [{"size": "1"}, {"size": "1"}, {"size": "176"}, {"size": "176"}]}}}, "dtype": {"type": "DT_FLOAT"}}}, {"name": "StatefulPartitionedCall/sequential/NASNet/separable_conv_2_reduction_left1_stem_2/separable_conv2d_bn_offset", "op": "Const", "attr": {"value": {"tensor": {"dtype": "DT_FLOAT", "tensorShape": {"dim": [{"size": "22"}]}}}, "dtype": {"type": "DT_FLOAT"}}}, {"name": "StatefulPartitionedCall/sequential/NASNet/separable_conv_2_normal_right1_0/separable_conv2d_weights", "op": "Const", "attr": {"value": {"tensor": {"dtype": "DT_FLOAT", "tensorShape": {"dim": [{"size": "1"}, {"size": "1"}, {"size": "44"}, {"size": "44"}]}}}, "dtype": {"type": "DT_FLOAT"}}}, {"name": "StatefulPartitionedCall/sequential/NASNet/separable_conv_2_normal_right1_0/separable_conv2d_bn_offset", "op": "Const", "attr": {"value": {"tensor": {"dtype": "DT_FLOAT", "tensorShape": {"dim": [{"size": "44"}]}}}, "dtype": {"type": "DT_FLOAT"}}}, {"name": "StatefulPartitionedCall/sequential/NASNet/separable_conv_2_normal_left2_0/separable_conv2d_weights", "op": "Const", "attr": {"value": {"tensor": {"dtype": "DT_FLOAT", "tensorShape": {"dim": [{"size": "1"}, {"size": "1"}, {"size": "44"}, {"size": "44"}]}}}, "dtype": {"type": "DT_FLOAT"}}}, {"name": "StatefulPartitionedCall/sequential/NASNet/separable_conv_2_normal_left5_9/separable_conv2d_bn_offset", "op": "Const", "attr": {"value": {"tensor": {"dtype": "DT_FLOAT", "tensorShape": {"dim": [{"size": "176"}]}}}, "dtype": {"type": "DT_FLOAT"}}}, {"name": "StatefulPartitionedCall/sequential/NASNet/separable_conv_2_normal_left2_0/separable_conv2d_bn_offset", "op": "Const", "attr": {"value": {"tensor": {"dtype": "DT_FLOAT", "tensorShape": {"dim": [{"size": "44"}]}}}, "dtype": {"type": "DT_FLOAT"}}}, {"name": "StatefulPartitionedCall/sequential/NASNet/separable_conv_2_normal_right2_0/separable_conv2d_weights", "op": "Const", "attr": {"value": {"tensor": {"dtype": "DT_FLOAT", "tensorShape": {"dim": [{"size": "1"}, {"size": "1"}, {"size": "44"}, {"size": "44"}]}}}, "dtype": {"type": "DT_FLOAT"}}}, {"name": "StatefulPartitionedCall/sequential/NASNet/separable_conv_2_normal_right2_0/separable_conv2d_bn_offset", "op": "Const", "attr": {"value": {"tensor": {"dtype": "DT_FLOAT", "tensorShape": {"dim": [{"size": "44"}]}}}, "dtype": {"type": "DT_FLOAT"}}}, {"name": "StatefulPartitionedCall/sequential/NASNet/separable_conv_1_reduction_left4_stem_2/separable_conv2d_weights", "op": "Const", "attr": {"value": {"tensor": {"dtype": "DT_FLOAT", "tensorShape": {"dim": [{"size": "1"}, {"size": "1"}, {"size": "22"}, {"size": "22"}]}}}, "dtype": {"type": "DT_FLOAT"}}}, {"name": "StatefulPartitionedCall/sequential/NASNet/separable_conv_1_reduction_left4_stem_2/separable_conv2d_bn_offset", "op": "Const", "attr": {"value": {"tensor": {"dtype": "DT_FLOAT", "tensorShape": {"dim": [{"size": "22"}]}}}, "dtype": {"type": "DT_FLOAT"}}}, {"name": "StatefulPartitionedCall/sequential/NASNet/separable_conv_2_reduction_left4_stem_2/separable_conv2d_weights", "op": "Const", "attr": {"value": {"tensor": {"dtype": "DT_FLOAT", "tensorShape": {"dim": [{"size": "1"}, {"size": "1"}, {"size": "22"}, {"size": "22"}]}}}, "dtype": {"type": "DT_FLOAT"}}}, {"name": "StatefulPartitionedCall/sequential/NASNet/separable_conv_2_reduction_left4_stem_2/separable_conv2d_bn_offset", "op": "Const", "attr": {"value": {"tensor": {"dtype": "DT_FLOAT", "tensorShape": {"dim": [{"size": "22"}]}}}, "dtype": {"type": "DT_FLOAT"}}}, {"name": "StatefulPartitionedCall/sequential/NASNet/adjust_conv_projection_1/Conv2D_weights", "op": "Const", "attr": {"value": {"tensor": {"dtype": "DT_FLOAT", "tensorShape": {"dim": [{"size": "1"}, {"size": "1"}, {"size": "88"}, {"size": "44"}]}}}, "dtype": {"type": "DT_FLOAT"}}}, {"name": "StatefulPartitionedCall/sequential/NASNet/adjust_conv_projection_1/Conv2D_bn_offset", "op": "Const", "attr": {"value": {"tensor": {"dtype": "DT_FLOAT", "tensorShape": {"dim": [{"size": "44"}]}}}, "dtype": {"type": "DT_FLOAT"}}}, {"name": "StatefulPartitionedCall/sequential/NASNet/normal_conv_1_0/Conv2D_weights", "op": "Const", "attr": {"value": {"tensor": {"dtype": "DT_FLOAT", "tensorShape": {"dim": [{"size": "1"}, {"size": "1"}, {"size": "88"}, {"size": "44"}]}}}, "dtype": {"type": "DT_FLOAT"}}}, {"name": "StatefulPartitionedCall/sequential/NASNet/adjust_conv_projection_11/Conv2D_weights", "op": "Const", "attr": {"value": {"tensor": {"dtype": "DT_FLOAT", "tensorShape": {"dim": [{"size": "1"}, {"size": "1"}, {"size": "1056"}, {"size": "176"}]}}}, "dtype": {"type": "DT_FLOAT"}}}, {"name": "StatefulPartitionedCall/sequential/NASNet/normal_conv_1_0/Conv2D_bn_offset", "op": "Const", "attr": {"value": {"tensor": {"dtype": "DT_FLOAT", "tensorShape": {"dim": [{"size": "44"}]}}}, "dtype": {"type": "DT_FLOAT"}}}, {"name": "StatefulPartitionedCall/sequential/NASNet/separable_conv_1_normal_right1_1/separable_conv2d_weights", "op": "Const", "attr": {"value": {"tensor": {"dtype": "DT_FLOAT", "tensorShape": {"dim": [{"size": "1"}, {"size": "1"}, {"size": "44"}, {"size": "44"}]}}}, "dtype": {"type": "DT_FLOAT"}}}, {"name": "StatefulPartitionedCall/sequential/NASNet/separable_conv_2_normal_left5_12/separable_conv2d_weights", "op": "Const", "attr": {"value": {"tensor": {"dtype": "DT_FLOAT", "tensorShape": {"dim": [{"size": "1"}, {"size": "1"}, {"size": "176"}, {"size": "176"}]}}}, "dtype": {"type": "DT_FLOAT"}}}, {"name": "StatefulPartitionedCall/sequential/NASNet/separable_conv_1_normal_right1_1/separable_conv2d_bn_offset", "op": "Const", "attr": {"value": {"tensor": {"dtype": "DT_FLOAT", "tensorShape": {"dim": [{"size": "44"}]}}}, "dtype": {"type": "DT_FLOAT"}}}, {"name": "StatefulPartitionedCall/sequential/NASNet/adjust_conv_projection_11/Conv2D_bn_offset", "op": "Const", "attr": {"value": {"tensor": {"dtype": "DT_FLOAT", "tensorShape": {"dim": [{"size": "176"}]}}}, "dtype": {"type": "DT_FLOAT"}}}, {"name": "StatefulPartitionedCall/sequential/NASNet/separable_conv_1_normal_left2_1/separable_conv2d_weights", "op": "Const", "attr": {"value": {"tensor": {"dtype": "DT_FLOAT", "tensorShape": {"dim": [{"size": "1"}, {"size": "1"}, {"size": "44"}, {"size": "44"}]}}}, "dtype": {"type": "DT_FLOAT"}}}, {"name": "StatefulPartitionedCall/sequential/NASNet/separable_conv_1_normal_left2_1/separable_conv2d_bn_offset", "op": "Const", "attr": {"value": {"tensor": {"dtype": "DT_FLOAT", "tensorShape": {"dim": [{"size": "44"}]}}}, "dtype": {"type": "DT_FLOAT"}}}, {"name": "StatefulPartitionedCall/sequential/NASNet/separable_conv_1_normal_right2_1/separable_conv2d_weights", "op": "Const", "attr": {"value": {"tensor": {"dtype": "DT_FLOAT", "tensorShape": {"dim": [{"size": "1"}, {"size": "1"}, {"size": "44"}, {"size": "44"}]}}}, "dtype": {"type": "DT_FLOAT"}}}, {"name": "StatefulPartitionedCall/sequential/NASNet/separable_conv_1_normal_right2_1/separable_conv2d_bn_offset", "op": "Const", "attr": {"value": {"tensor": {"dtype": "DT_FLOAT", "tensorShape": {"dim": [{"size": "44"}]}}}, "dtype": {"type": "DT_FLOAT"}}}, {"name": "StatefulPartitionedCall/sequential/NASNet/separable_conv_1_normal_left1_0/separable_conv2d_weights", "op": "Const", "attr": {"value": {"tensor": {"dtype": "DT_FLOAT", "tensorShape": {"dim": [{"size": "1"}, {"size": "1"}, {"size": "44"}, {"size": "44"}]}}}, "dtype": {"type": "DT_FLOAT"}}}, {"name": "StatefulPartitionedCall/sequential/NASNet/separable_conv_1_normal_left1_0/separable_conv2d_bn_offset", "op": "Const", "attr": {"value": {"tensor": {"dtype": "DT_FLOAT", "tensorShape": {"dim": [{"size": "44"}]}}}, "dtype": {"type": "DT_FLOAT"}}}, {"name": "StatefulPartitionedCall/sequential/NASNet/separable_conv_1_normal_left5_0/separable_conv2d_weights", "op": "Const", "attr": {"value": {"tensor": {"dtype": "DT_FLOAT", "tensorShape": {"dim": [{"size": "1"}, {"size": "1"}, {"size": "44"}, {"size": "44"}]}}}, "dtype": {"type": "DT_FLOAT"}}}, {"name": "StatefulPartitionedCall/sequential/NASNet/separable_conv_1_normal_left5_0/separable_conv2d_bn_offset", "op": "Const", "attr": {"value": {"tensor": {"dtype": "DT_FLOAT", "tensorShape": {"dim": [{"size": "44"}]}}}, "dtype": {"type": "DT_FLOAT"}}}, {"name": "StatefulPartitionedCall/sequential/NASNet/separable_conv_2_normal_right1_1/separable_conv2d_weights", "op": "Const", "attr": {"value": {"tensor": {"dtype": "DT_FLOAT", "tensorShape": {"dim": [{"size": "1"}, {"size": "1"}, {"size": "44"}, {"size": "44"}]}}}, "dtype": {"type": "DT_FLOAT"}}}, {"name": "StatefulPartitionedCall/sequential/NASNet/separable_conv_2_normal_right1_1/separable_conv2d_bn_offset", "op": "Const", "attr": {"value": {"tensor": {"dtype": "DT_FLOAT", "tensorShape": {"dim": [{"size": "44"}]}}}, "dtype": {"type": "DT_FLOAT"}}}, {"name": "StatefulPartitionedCall/sequential/NASNet/separable_conv_2_normal_left2_1/separable_conv2d_weights", "op": "Const", "attr": {"value": {"tensor": {"dtype": "DT_FLOAT", "tensorShape": {"dim": [{"size": "1"}, {"size": "1"}, {"size": "44"}, {"size": "44"}]}}}, "dtype": {"type": "DT_FLOAT"}}}, {"name": "StatefulPartitionedCall/sequential/NASNet/separable_conv_2_normal_left2_1/separable_conv2d_bn_offset", "op": "Const", "attr": {"value": {"tensor": {"dtype": "DT_FLOAT", "tensorShape": {"dim": [{"size": "44"}]}}}, "dtype": {"type": "DT_FLOAT"}}}, {"name": "StatefulPartitionedCall/sequential/NASNet/separable_conv_2_normal_right2_1/separable_conv2d_weights", "op": "Const", "attr": {"value": {"tensor": {"dtype": "DT_FLOAT", "tensorShape": {"dim": [{"size": "1"}, {"size": "1"}, {"size": "44"}, {"size": "44"}]}}}, "dtype": {"type": "DT_FLOAT"}}}, {"name": "StatefulPartitionedCall/sequential/NASNet/normal_conv_1_10/Conv2D_weights", "op": "Const", "attr": {"value": {"tensor": {"dtype": "DT_FLOAT", "tensorShape": {"dim": [{"size": "1"}, {"size": "1"}, {"size": "1056"}, {"size": "176"}]}}}, "dtype": {"type": "DT_FLOAT"}}}, {"name": "StatefulPartitionedCall/sequential/NASNet/separable_conv_2_normal_right2_1/separable_conv2d_bn_offset", "op": "Const", "attr": {"value": {"tensor": {"dtype": "DT_FLOAT", "tensorShape": {"dim": [{"size": "44"}]}}}, "dtype": {"type": "DT_FLOAT"}}}, {"name": "StatefulPartitionedCall/sequential/NASNet/separable_conv_2_normal_left1_0/separable_conv2d_weights", "op": "Const", "attr": {"value": {"tensor": {"dtype": "DT_FLOAT", "tensorShape": {"dim": [{"size": "1"}, {"size": "1"}, {"size": "44"}, {"size": "44"}]}}}, "dtype": {"type": "DT_FLOAT"}}}, {"name": "StatefulPartitionedCall/sequential/NASNet/separable_conv_2_normal_left1_0/separable_conv2d_bn_offset", "op": "Const", "attr": {"value": {"tensor": {"dtype": "DT_FLOAT", "tensorShape": {"dim": [{"size": "44"}]}}}, "dtype": {"type": "DT_FLOAT"}}}, {"name": "StatefulPartitionedCall/sequential/NASNet/separable_conv_2_normal_left5_0/separable_conv2d_weights", "op": "Const", "attr": {"value": {"tensor": {"dtype": "DT_FLOAT", "tensorShape": {"dim": [{"size": "1"}, {"size": "1"}, {"size": "44"}, {"size": "44"}]}}}, "dtype": {"type": "DT_FLOAT"}}}, {"name": "StatefulPartitionedCall/sequential/NASNet/normal_conv_1_10/Conv2D_bn_offset", "op": "Const", "attr": {"value": {"tensor": {"dtype": "DT_FLOAT", "tensorShape": {"dim": [{"size": "176"}]}}}, "dtype": {"type": "DT_FLOAT"}}}, {"name": "StatefulPartitionedCall/sequential/NASNet/separable_conv_2_normal_left5_0/separable_conv2d_bn_offset", "op": "Const", "attr": {"value": {"tensor": {"dtype": "DT_FLOAT", "tensorShape": {"dim": [{"size": "44"}]}}}, "dtype": {"type": "DT_FLOAT"}}}, {"name": "StatefulPartitionedCall/sequential/NASNet/adjust_conv_projection_2/Conv2D_weights", "op": "Const", "attr": {"value": {"tensor": {"dtype": "DT_FLOAT", "tensorShape": {"dim": [{"size": "1"}, {"size": "1"}, {"size": "264"}, {"size": "44"}]}}}, "dtype": {"type": "DT_FLOAT"}}}, {"name": "StatefulPartitionedCall/sequential/NASNet/adjust_conv_projection_2/Conv2D_bn_offset", "op": "Const", "attr": {"value": {"tensor": {"dtype": "DT_FLOAT", "tensorShape": {"dim": [{"size": "44"}]}}}, "dtype": {"type": "DT_FLOAT"}}}, {"name": "StatefulPartitionedCall/sequential/NASNet/normal_conv_1_1/Conv2D_weights", "op": "Const", "attr": {"value": {"tensor": {"dtype": "DT_FLOAT", "tensorShape": {"dim": [{"size": "1"}, {"size": "1"}, {"size": "264"}, {"size": "44"}]}}}, "dtype": {"type": "DT_FLOAT"}}}, {"name": "StatefulPartitionedCall/sequential/NASNet/normal_conv_1_1/Conv2D_bn_offset", "op": "Const", "attr": {"value": {"tensor": {"dtype": "DT_FLOAT", "tensorShape": {"dim": [{"size": "44"}]}}}, "dtype": {"type": "DT_FLOAT"}}}, {"name": "StatefulPartitionedCall/sequential/NASNet/separable_conv_1_normal_right1_2/separable_conv2d_weights", "op": "Const", "attr": {"value": {"tensor": {"dtype": "DT_FLOAT", "tensorShape": {"dim": [{"size": "1"}, {"size": "1"}, {"size": "44"}, {"size": "44"}]}}}, "dtype": {"type": "DT_FLOAT"}}}, {"name": "StatefulPartitionedCall/sequential/NASNet/separable_conv_1_normal_right1_2/separable_conv2d_bn_offset", "op": "Const", "attr": {"value": {"tensor": {"dtype": "DT_FLOAT", "tensorShape": {"dim": [{"size": "44"}]}}}, "dtype": {"type": "DT_FLOAT"}}}, {"name": "StatefulPartitionedCall/sequential/NASNet/separable_conv_1_normal_left2_2/separable_conv2d_weights", "op": "Const", "attr": {"value": {"tensor": {"dtype": "DT_FLOAT", "tensorShape": {"dim": [{"size": "1"}, {"size": "1"}, {"size": "44"}, {"size": "44"}]}}}, "dtype": {"type": "DT_FLOAT"}}}, {"name": "StatefulPartitionedCall/sequential/NASNet/separable_conv_1_normal_left2_2/separable_conv2d_bn_offset", "op": "Const", "attr": {"value": {"tensor": {"dtype": "DT_FLOAT", "tensorShape": {"dim": [{"size": "44"}]}}}, "dtype": {"type": "DT_FLOAT"}}}, {"name": "StatefulPartitionedCall/sequential/NASNet/separable_conv_1_normal_right2_2/separable_conv2d_weights", "op": "Const", "attr": {"value": {"tensor": {"dtype": "DT_FLOAT", "tensorShape": {"dim": [{"size": "1"}, {"size": "1"}, {"size": "44"}, {"size": "44"}]}}}, "dtype": {"type": "DT_FLOAT"}}}, {"name": "StatefulPartitionedCall/sequential/NASNet/separable_conv_1_normal_right2_2/separable_conv2d_bn_offset", "op": "Const", "attr": {"value": {"tensor": {"dtype": "DT_FLOAT", "tensorShape": {"dim": [{"size": "44"}]}}}, "dtype": {"type": "DT_FLOAT"}}}, {"name": "StatefulPartitionedCall/sequential/NASNet/separable_conv_1_normal_right1_11/separable_conv2d_weights", "op": "Const", "attr": {"value": {"tensor": {"dtype": "DT_FLOAT", "tensorShape": {"dim": [{"size": "1"}, {"size": "1"}, {"size": "176"}, {"size": "176"}]}}}, "dtype": {"type": "DT_FLOAT"}}}, {"name": "StatefulPartitionedCall/sequential/NASNet/separable_conv_1_normal_left1_1/separable_conv2d_weights", "op": "Const", "attr": {"value": {"tensor": {"dtype": "DT_FLOAT", "tensorShape": {"dim": [{"size": "1"}, {"size": "1"}, {"size": "44"}, {"size": "44"}]}}}, "dtype": {"type": "DT_FLOAT"}}}, {"name": "StatefulPartitionedCall/sequential/NASNet/separable_conv_2_normal_left5_12/separable_conv2d_bn_offset", "op": "Const", "attr": {"value": {"tensor": {"dtype": "DT_FLOAT", "tensorShape": {"dim": [{"size": "176"}]}}}, "dtype": {"type": "DT_FLOAT"}}}, {"name": "StatefulPartitionedCall/sequential/NASNet/separable_conv_1_normal_left1_1/separable_conv2d_bn_offset", "op": "Const", "attr": {"value": {"tensor": {"dtype": "DT_FLOAT", "tensorShape": {"dim": [{"size": "44"}]}}}, "dtype": {"type": "DT_FLOAT"}}}, {"name": "StatefulPartitionedCall/sequential/NASNet/separable_conv_1_normal_right1_11/separable_conv2d_bn_offset", "op": "Const", "attr": {"value": {"tensor": {"dtype": "DT_FLOAT", "tensorShape": {"dim": [{"size": "176"}]}}}, "dtype": {"type": "DT_FLOAT"}}}, {"name": "StatefulPartitionedCall/sequential/NASNet/separable_conv_1_normal_left5_1/separable_conv2d_weights", "op": "Const", "attr": {"value": {"tensor": {"dtype": "DT_FLOAT", "tensorShape": {"dim": [{"size": "1"}, {"size": "1"}, {"size": "44"}, {"size": "44"}]}}}, "dtype": {"type": "DT_FLOAT"}}}, {"name": "StatefulPartitionedCall/sequential/NASNet/separable_conv_1_normal_left5_1/separable_conv2d_bn_offset", "op": "Const", "attr": {"value": {"tensor": {"dtype": "DT_FLOAT", "tensorShape": {"dim": [{"size": "44"}]}}}, "dtype": {"type": "DT_FLOAT"}}}, {"name": "StatefulPartitionedCall/sequential/NASNet/separable_conv_2_normal_right1_2/separable_conv2d_weights", "op": "Const", "attr": {"value": {"tensor": {"dtype": "DT_FLOAT", "tensorShape": {"dim": [{"size": "1"}, {"size": "1"}, {"size": "44"}, {"size": "44"}]}}}, "dtype": {"type": "DT_FLOAT"}}}, {"name": "StatefulPartitionedCall/sequential/NASNet/separable_conv_2_normal_right1_2/separable_conv2d_bn_offset", "op": "Const", "attr": {"value": {"tensor": {"dtype": "DT_FLOAT", "tensorShape": {"dim": [{"size": "44"}]}}}, "dtype": {"type": "DT_FLOAT"}}}, {"name": "StatefulPartitionedCall/sequential/NASNet/separable_conv_2_normal_left2_2/separable_conv2d_weights", "op": "Const", "attr": {"value": {"tensor": {"dtype": "DT_FLOAT", "tensorShape": {"dim": [{"size": "1"}, {"size": "1"}, {"size": "44"}, {"size": "44"}]}}}, "dtype": {"type": "DT_FLOAT"}}}, {"name": "StatefulPartitionedCall/sequential/NASNet/separable_conv_1_normal_left2_11/separable_conv2d_weights", "op": "Const", "attr": {"value": {"tensor": {"dtype": "DT_FLOAT", "tensorShape": {"dim": [{"size": "1"}, {"size": "1"}, {"size": "176"}, {"size": "176"}]}}}, "dtype": {"type": "DT_FLOAT"}}}, {"name": "StatefulPartitionedCall/sequential/NASNet/separable_conv_2_normal_left2_2/separable_conv2d_bn_offset", "op": "Const", "attr": {"value": {"tensor": {"dtype": "DT_FLOAT", "tensorShape": {"dim": [{"size": "44"}]}}}, "dtype": {"type": "DT_FLOAT"}}}, {"name": "StatefulPartitionedCall/sequential/NASNet/separable_conv_2_normal_right2_2/separable_conv2d_weights", "op": "Const", "attr": {"value": {"tensor": {"dtype": "DT_FLOAT", "tensorShape": {"dim": [{"size": "1"}, {"size": "1"}, {"size": "44"}, {"size": "44"}]}}}, "dtype": {"type": "DT_FLOAT"}}}, {"name": "StatefulPartitionedCall/sequential/NASNet/separable_conv_2_normal_right2_2/separable_conv2d_bn_offset", "op": "Const", "attr": {"value": {"tensor": {"dtype": "DT_FLOAT", "tensorShape": {"dim": [{"size": "44"}]}}}, "dtype": {"type": "DT_FLOAT"}}}, {"name": "StatefulPartitionedCall/sequential/NASNet/separable_conv_2_normal_left1_1/separable_conv2d_weights", "op": "Const", "attr": {"value": {"tensor": {"dtype": "DT_FLOAT", "tensorShape": {"dim": [{"size": "1"}, {"size": "1"}, {"size": "44"}, {"size": "44"}]}}}, "dtype": {"type": "DT_FLOAT"}}}, {"name": "StatefulPartitionedCall/sequential/NASNet/separable_conv_1_normal_left2_11/separable_conv2d_bn_offset", "op": "Const", "attr": {"value": {"tensor": {"dtype": "DT_FLOAT", "tensorShape": {"dim": [{"size": "176"}]}}}, "dtype": {"type": "DT_FLOAT"}}}, {"name": "StatefulPartitionedCall/sequential/NASNet/separable_conv_2_normal_left1_1/separable_conv2d_bn_offset", "op": "Const", "attr": {"value": {"tensor": {"dtype": "DT_FLOAT", "tensorShape": {"dim": [{"size": "44"}]}}}, "dtype": {"type": "DT_FLOAT"}}}, {"name": "StatefulPartitionedCall/sequential/NASNet/separable_conv_2_normal_left5_1/separable_conv2d_weights", "op": "Const", "attr": {"value": {"tensor": {"dtype": "DT_FLOAT", "tensorShape": {"dim": [{"size": "1"}, {"size": "1"}, {"size": "44"}, {"size": "44"}]}}}, "dtype": {"type": "DT_FLOAT"}}}, {"name": "StatefulPartitionedCall/sequential/NASNet/separable_conv_2_normal_left5_1/separable_conv2d_bn_offset", "op": "Const", "attr": {"value": {"tensor": {"dtype": "DT_FLOAT", "tensorShape": {"dim": [{"size": "44"}]}}}, "dtype": {"type": "DT_FLOAT"}}}, {"name": "StatefulPartitionedCall/sequential/NASNet/adjust_conv_projection_3/Conv2D_weights", "op": "Const", "attr": {"value": {"tensor": {"dtype": "DT_FLOAT", "tensorShape": {"dim": [{"size": "1"}, {"size": "1"}, {"size": "264"}, {"size": "44"}]}}}, "dtype": {"type": "DT_FLOAT"}}}, {"name": "StatefulPartitionedCall/sequential/NASNet/adjust_conv_projection_3/Conv2D_bn_offset", "op": "Const", "attr": {"value": {"tensor": {"dtype": "DT_FLOAT", "tensorShape": {"dim": [{"size": "44"}]}}}, "dtype": {"type": "DT_FLOAT"}}}, {"name": "StatefulPartitionedCall/sequential/NASNet/normal_conv_1_2/Conv2D_weights", "op": "Const", "attr": {"value": {"tensor": {"dtype": "DT_FLOAT", "tensorShape": {"dim": [{"size": "1"}, {"size": "1"}, {"size": "264"}, {"size": "44"}]}}}, "dtype": {"type": "DT_FLOAT"}}}, {"name": "StatefulPartitionedCall/sequential/NASNet/normal_conv_1_2/Conv2D_bn_offset", "op": "Const", "attr": {"value": {"tensor": {"dtype": "DT_FLOAT", "tensorShape": {"dim": [{"size": "44"}]}}}, "dtype": {"type": "DT_FLOAT"}}}, {"name": "StatefulPartitionedCall/sequential/NASNet/separable_conv_1_normal_right1_3/separable_conv2d_weights", "op": "Const", "attr": {"value": {"tensor": {"dtype": "DT_FLOAT", "tensorShape": {"dim": [{"size": "1"}, {"size": "1"}, {"size": "44"}, {"size": "44"}]}}}, "dtype": {"type": "DT_FLOAT"}}}, {"name": "StatefulPartitionedCall/sequential/NASNet/separable_conv_1_normal_right2_11/separable_conv2d_weights", "op": "Const", "attr": {"value": {"tensor": {"dtype": "DT_FLOAT", "tensorShape": {"dim": [{"size": "1"}, {"size": "1"}, {"size": "176"}, {"size": "176"}]}}}, "dtype": {"type": "DT_FLOAT"}}}, {"name": "StatefulPartitionedCall/sequential/NASNet/separable_conv_1_normal_right1_3/separable_conv2d_bn_offset", "op": "Const", "attr": {"value": {"tensor": {"dtype": "DT_FLOAT", "tensorShape": {"dim": [{"size": "44"}]}}}, "dtype": {"type": "DT_FLOAT"}}}, {"name": "StatefulPartitionedCall/sequential/NASNet/separable_conv_1_normal_left2_3/separable_conv2d_weights", "op": "Const", "attr": {"value": {"tensor": {"dtype": "DT_FLOAT", "tensorShape": {"dim": [{"size": "1"}, {"size": "1"}, {"size": "44"}, {"size": "44"}]}}}, "dtype": {"type": "DT_FLOAT"}}}, {"name": "StatefulPartitionedCall/sequential/NASNet/separable_conv_1_normal_right2_11/separable_conv2d_bn_offset", "op": "Const", "attr": {"value": {"tensor": {"dtype": "DT_FLOAT", "tensorShape": {"dim": [{"size": "176"}]}}}, "dtype": {"type": "DT_FLOAT"}}}, {"name": "StatefulPartitionedCall/sequential/NASNet/separable_conv_1_normal_left2_3/separable_conv2d_bn_offset", "op": "Const", "attr": {"value": {"tensor": {"dtype": "DT_FLOAT", "tensorShape": {"dim": [{"size": "44"}]}}}, "dtype": {"type": "DT_FLOAT"}}}, {"name": "StatefulPartitionedCall/sequential/NASNet/separable_conv_1_normal_right2_3/separable_conv2d_weights", "op": "Const", "attr": {"value": {"tensor": {"dtype": "DT_FLOAT", "tensorShape": {"dim": [{"size": "1"}, {"size": "1"}, {"size": "44"}, {"size": "44"}]}}}, "dtype": {"type": "DT_FLOAT"}}}, {"name": "StatefulPartitionedCall/sequential/NASNet/separable_conv_1_normal_right2_3/separable_conv2d_bn_offset", "op": "Const", "attr": {"value": {"tensor": {"dtype": "DT_FLOAT", "tensorShape": {"dim": [{"size": "44"}]}}}, "dtype": {"type": "DT_FLOAT"}}}, {"name": "StatefulPartitionedCall/sequential/NASNet/separable_conv_1_normal_left1_2/separable_conv2d_weights", "op": "Const", "attr": {"value": {"tensor": {"dtype": "DT_FLOAT", "tensorShape": {"dim": [{"size": "1"}, {"size": "1"}, {"size": "44"}, {"size": "44"}]}}}, "dtype": {"type": "DT_FLOAT"}}}, {"name": "StatefulPartitionedCall/sequential/NASNet/separable_conv_1_normal_left1_10/separable_conv2d_weights", "op": "Const", "attr": {"value": {"tensor": {"dtype": "DT_FLOAT", "tensorShape": {"dim": [{"size": "1"}, {"size": "1"}, {"size": "176"}, {"size": "176"}]}}}, "dtype": {"type": "DT_FLOAT"}}}, {"name": "StatefulPartitionedCall/sequential/NASNet/separable_conv_1_normal_left1_2/separable_conv2d_bn_offset", "op": "Const", "attr": {"value": {"tensor": {"dtype": "DT_FLOAT", "tensorShape": {"dim": [{"size": "44"}]}}}, "dtype": {"type": "DT_FLOAT"}}}, {"name": "StatefulPartitionedCall/sequential/NASNet/separable_conv_1_normal_left5_2/separable_conv2d_weights", "op": "Const", "attr": {"value": {"tensor": {"dtype": "DT_FLOAT", "tensorShape": {"dim": [{"size": "1"}, {"size": "1"}, {"size": "44"}, {"size": "44"}]}}}, "dtype": {"type": "DT_FLOAT"}}}, {"name": "StatefulPartitionedCall/sequential/NASNet/separable_conv_1_normal_left1_10/separable_conv2d_bn_offset", "op": "Const", "attr": {"value": {"tensor": {"dtype": "DT_FLOAT", "tensorShape": {"dim": [{"size": "176"}]}}}, "dtype": {"type": "DT_FLOAT"}}}, {"name": "StatefulPartitionedCall/sequential/NASNet/separable_conv_1_normal_left5_2/separable_conv2d_bn_offset", "op": "Const", "attr": {"value": {"tensor": {"dtype": "DT_FLOAT", "tensorShape": {"dim": [{"size": "44"}]}}}, "dtype": {"type": "DT_FLOAT"}}}, {"name": "StatefulPartitionedCall/sequential/NASNet/adjust_bn_stem_2/FusedBatchNormV3/Scaled", "op": "Const", "attr": {"value": {"tensor": {"dtype": "DT_FLOAT", "tensorShape": {"dim": [{"size": "22"}]}}}, "dtype": {"type": "DT_FLOAT"}}}, {"name": "StatefulPartitionedCall/sequential/NASNet/separable_conv_2_normal_right1_3/separable_conv2d_weights", "op": "Const", "attr": {"value": {"tensor": {"dtype": "DT_FLOAT", "tensorShape": {"dim": [{"size": "1"}, {"size": "1"}, {"size": "44"}, {"size": "44"}]}}}, "dtype": {"type": "DT_FLOAT"}}}, {"name": "StatefulPartitionedCall/sequential/NASNet/separable_conv_2_normal_right1_3/separable_conv2d_bn_offset", "op": "Const", "attr": {"value": {"tensor": {"dtype": "DT_FLOAT", "tensorShape": {"dim": [{"size": "44"}]}}}, "dtype": {"type": "DT_FLOAT"}}}, {"name": "StatefulPartitionedCall/sequential/NASNet/separable_conv_2_normal_left2_3/separable_conv2d_weights", "op": "Const", "attr": {"value": {"tensor": {"dtype": "DT_FLOAT", "tensorShape": {"dim": [{"size": "1"}, {"size": "1"}, {"size": "44"}, {"size": "44"}]}}}, "dtype": {"type": "DT_FLOAT"}}}, {"name": "StatefulPartitionedCall/sequential/NASNet/separable_conv_2_normal_left2_3/separable_conv2d_bn_offset", "op": "Const", "attr": {"value": {"tensor": {"dtype": "DT_FLOAT", "tensorShape": {"dim": [{"size": "44"}]}}}, "dtype": {"type": "DT_FLOAT"}}}, {"name": "StatefulPartitionedCall/sequential/NASNet/separable_conv_2_normal_right2_3/separable_conv2d_weights", "op": "Const", "attr": {"value": {"tensor": {"dtype": "DT_FLOAT", "tensorShape": {"dim": [{"size": "1"}, {"size": "1"}, {"size": "44"}, {"size": "44"}]}}}, "dtype": {"type": "DT_FLOAT"}}}, {"name": "StatefulPartitionedCall/sequential/NASNet/separable_conv_1_normal_left5_10/separable_conv2d_weights", "op": "Const", "attr": {"value": {"tensor": {"dtype": "DT_FLOAT", "tensorShape": {"dim": [{"size": "1"}, {"size": "1"}, {"size": "176"}, {"size": "176"}]}}}, "dtype": {"type": "DT_FLOAT"}}}, {"name": "StatefulPartitionedCall/sequential/NASNet/separable_conv_2_normal_right2_3/separable_conv2d_bn_offset", "op": "Const", "attr": {"value": {"tensor": {"dtype": "DT_FLOAT", "tensorShape": {"dim": [{"size": "44"}]}}}, "dtype": {"type": "DT_FLOAT"}}}, {"name": "StatefulPartitionedCall/sequential/NASNet/separable_conv_2_normal_left1_2/separable_conv2d_weights", "op": "Const", "attr": {"value": {"tensor": {"dtype": "DT_FLOAT", "tensorShape": {"dim": [{"size": "1"}, {"size": "1"}, {"size": "44"}, {"size": "44"}]}}}, "dtype": {"type": "DT_FLOAT"}}}, {"name": "StatefulPartitionedCall/sequential/NASNet/separable_conv_2_normal_left1_2/separable_conv2d_bn_offset", "op": "Const", "attr": {"value": {"tensor": {"dtype": "DT_FLOAT", "tensorShape": {"dim": [{"size": "44"}]}}}, "dtype": {"type": "DT_FLOAT"}}}, {"name": "StatefulPartitionedCall/sequential/NASNet/separable_conv_2_normal_left5_2/separable_conv2d_weights", "op": "Const", "attr": {"value": {"tensor": {"dtype": "DT_FLOAT", "tensorShape": {"dim": [{"size": "1"}, {"size": "1"}, {"size": "44"}, {"size": "44"}]}}}, "dtype": {"type": "DT_FLOAT"}}}, {"name": "StatefulPartitionedCall/sequential/NASNet/separable_conv_1_normal_left5_10/separable_conv2d_bn_offset", "op": "Const", "attr": {"value": {"tensor": {"dtype": "DT_FLOAT", "tensorShape": {"dim": [{"size": "176"}]}}}, "dtype": {"type": "DT_FLOAT"}}}, {"name": "StatefulPartitionedCall/sequential/NASNet/separable_conv_2_normal_left5_2/separable_conv2d_bn_offset", "op": "Const", "attr": {"value": {"tensor": {"dtype": "DT_FLOAT", "tensorShape": {"dim": [{"size": "44"}]}}}, "dtype": {"type": "DT_FLOAT"}}}, {"name": "StatefulPartitionedCall/sequential/NASNet/adjust_conv_projection_reduce_4/Conv2D_weights", "op": "Const", "attr": {"value": {"tensor": {"dtype": "DT_FLOAT", "tensorShape": {"dim": [{"size": "1"}, {"size": "1"}, {"size": "264"}, {"size": "88"}]}}}, "dtype": {"type": "DT_FLOAT"}}}, {"name": "StatefulPartitionedCall/sequential/NASNet/adjust_conv_projection_reduce_4/Conv2D_bn_offset", "op": "Const", "attr": {"value": {"tensor": {"dtype": "DT_FLOAT", "tensorShape": {"dim": [{"size": "88"}]}}}, "dtype": {"type": "DT_FLOAT"}}}, {"name": "StatefulPartitionedCall/sequential/NASNet/normal_conv_1_3/Conv2D_weights", "op": "Const", "attr": {"value": {"tensor": {"dtype": "DT_FLOAT", "tensorShape": {"dim": [{"size": "1"}, {"size": "1"}, {"size": "264"}, {"size": "44"}]}}}, "dtype": {"type": "DT_FLOAT"}}}, {"name": "StatefulPartitionedCall/sequential/NASNet/normal_conv_1_3/Conv2D_bn_offset", "op": "Const", "attr": {"value": {"tensor": {"dtype": "DT_FLOAT", "tensorShape": {"dim": [{"size": "44"}]}}}, "dtype": {"type": "DT_FLOAT"}}}, {"name": "StatefulPartitionedCall/sequential/NASNet/separable_conv_1_normal_left1_3/separable_conv2d_weights", "op": "Const", "attr": {"value": {"tensor": {"dtype": "DT_FLOAT", "tensorShape": {"dim": [{"size": "1"}, {"size": "1"}, {"size": "44"}, {"size": "44"}]}}}, "dtype": {"type": "DT_FLOAT"}}}, {"name": "StatefulPartitionedCall/sequential/NASNet/separable_conv_1_normal_left1_3/separable_conv2d_bn_offset", "op": "Const", "attr": {"value": {"tensor": {"dtype": "DT_FLOAT", "tensorShape": {"dim": [{"size": "44"}]}}}, "dtype": {"type": "DT_FLOAT"}}}, {"name": "StatefulPartitionedCall/sequential/NASNet/separable_conv_2_normal_right1_11/separable_conv2d_weights", "op": "Const", "attr": {"value": {"tensor": {"dtype": "DT_FLOAT", "tensorShape": {"dim": [{"size": "1"}, {"size": "1"}, {"size": "176"}, {"size": "176"}]}}}, "dtype": {"type": "DT_FLOAT"}}}, {"name": "StatefulPartitionedCall/sequential/NASNet/separable_conv_1_normal_left5_3/separable_conv2d_weights", "op": "Const", "attr": {"value": {"tensor": {"dtype": "DT_FLOAT", "tensorShape": {"dim": [{"size": "1"}, {"size": "1"}, {"size": "44"}, {"size": "44"}]}}}, "dtype": {"type": "DT_FLOAT"}}}, {"name": "StatefulPartitionedCall/sequential/NASNet/separable_conv_1_normal_left5_3/separable_conv2d_bn_offset", "op": "Const", "attr": {"value": {"tensor": {"dtype": "DT_FLOAT", "tensorShape": {"dim": [{"size": "44"}]}}}, "dtype": {"type": "DT_FLOAT"}}}, {"name": "StatefulPartitionedCall/sequential/NASNet/separable_conv_2_normal_right1_11/separable_conv2d_bn_offset", "op": "Const", "attr": {"value": {"tensor": {"dtype": "DT_FLOAT", "tensorShape": {"dim": [{"size": "176"}]}}}, "dtype": {"type": "DT_FLOAT"}}}, {"name": "StatefulPartitionedCall/sequential/NASNet/separable_conv_1_reduction_right3_reduce_4/separable_conv2d_weights", "op": "Const", "attr": {"value": {"tensor": {"dtype": "DT_FLOAT", "tensorShape": {"dim": [{"size": "1"}, {"size": "1"}, {"size": "88"}, {"size": "88"}]}}}, "dtype": {"type": "DT_FLOAT"}}}, {"name": "StatefulPartitionedCall/sequential/NASNet/separable_conv_1_reduction_right3_reduce_4/separable_conv2d_bn_offset", "op": "Const", "attr": {"value": {"tensor": {"dtype": "DT_FLOAT", "tensorShape": {"dim": [{"size": "88"}]}}}, "dtype": {"type": "DT_FLOAT"}}}, {"name": "StatefulPartitionedCall/sequential/NASNet/separable_conv_2_normal_left2_11/separable_conv2d_weights", "op": "Const", "attr": {"value": {"tensor": {"dtype": "DT_FLOAT", "tensorShape": {"dim": [{"size": "1"}, {"size": "1"}, {"size": "176"}, {"size": "176"}]}}}, "dtype": {"type": "DT_FLOAT"}}}, {"name": "StatefulPartitionedCall/sequential/NASNet/separable_conv_1_reduction_right2_reduce_4/separable_conv2d_weights", "op": "Const", "attr": {"value": {"tensor": {"dtype": "DT_FLOAT", "tensorShape": {"dim": [{"size": "1"}, {"size": "1"}, {"size": "88"}, {"size": "88"}]}}}, "dtype": {"type": "DT_FLOAT"}}}, {"name": "StatefulPartitionedCall/sequential/NASNet/separable_conv_1_reduction_right2_reduce_4/separable_conv2d_bn_offset", "op": "Const", "attr": {"value": {"tensor": {"dtype": "DT_FLOAT", "tensorShape": {"dim": [{"size": "88"}]}}}, "dtype": {"type": "DT_FLOAT"}}}, {"name": "StatefulPartitionedCall/sequential/NASNet/separable_conv_2_normal_left2_11/separable_conv2d_bn_offset", "op": "Const", "attr": {"value": {"tensor": {"dtype": "DT_FLOAT", "tensorShape": {"dim": [{"size": "176"}]}}}, "dtype": {"type": "DT_FLOAT"}}}, {"name": "StatefulPartitionedCall/sequential/NASNet/separable_conv_1_reduction_right1_reduce_4/separable_conv2d_weights", "op": "Const", "attr": {"value": {"tensor": {"dtype": "DT_FLOAT", "tensorShape": {"dim": [{"size": "1"}, {"size": "1"}, {"size": "88"}, {"size": "88"}]}}}, "dtype": {"type": "DT_FLOAT"}}}, {"name": "StatefulPartitionedCall/sequential/NASNet/separable_conv_1_reduction_right1_reduce_4/separable_conv2d_bn_offset", "op": "Const", "attr": {"value": {"tensor": {"dtype": "DT_FLOAT", "tensorShape": {"dim": [{"size": "88"}]}}}, "dtype": {"type": "DT_FLOAT"}}}, {"name": "StatefulPartitionedCall/sequential/NASNet/separable_conv_2_normal_right2_11/separable_conv2d_weights", "op": "Const", "attr": {"value": {"tensor": {"dtype": "DT_FLOAT", "tensorShape": {"dim": [{"size": "1"}, {"size": "1"}, {"size": "176"}, {"size": "176"}]}}}, "dtype": {"type": "DT_FLOAT"}}}, {"name": "StatefulPartitionedCall/sequential/NASNet/separable_conv_2_normal_left1_3/separable_conv2d_weights", "op": "Const", "attr": {"value": {"tensor": {"dtype": "DT_FLOAT", "tensorShape": {"dim": [{"size": "1"}, {"size": "1"}, {"size": "44"}, {"size": "44"}]}}}, "dtype": {"type": "DT_FLOAT"}}}, {"name": "StatefulPartitionedCall/sequential/NASNet/adjust_bn_stem_2/FusedBatchNormV3/Offset", "op": "Const", "attr": {"value": {"tensor": {"dtype": "DT_FLOAT", "tensorShape": {"dim": [{"size": "22"}]}}}, "dtype": {"type": "DT_FLOAT"}}}, {"name": "StatefulPartitionedCall/sequential/NASNet/separable_conv_2_normal_left1_3/separable_conv2d_bn_offset", "op": "Const", "attr": {"value": {"tensor": {"dtype": "DT_FLOAT", "tensorShape": {"dim": [{"size": "44"}]}}}, "dtype": {"type": "DT_FLOAT"}}}, {"name": "StatefulPartitionedCall/sequential/NASNet/separable_conv_2_normal_left5_3/separable_conv2d_weights", "op": "Const", "attr": {"value": {"tensor": {"dtype": "DT_FLOAT", "tensorShape": {"dim": [{"size": "1"}, {"size": "1"}, {"size": "44"}, {"size": "44"}]}}}, "dtype": {"type": "DT_FLOAT"}}}, {"name": "StatefulPartitionedCall/sequential/NASNet/separable_conv_2_normal_right2_11/separable_conv2d_bn_offset", "op": "Const", "attr": {"value": {"tensor": {"dtype": "DT_FLOAT", "tensorShape": {"dim": [{"size": "176"}]}}}, "dtype": {"type": "DT_FLOAT"}}}, {"name": "StatefulPartitionedCall/sequential/NASNet/separable_conv_2_normal_left5_3/separable_conv2d_bn_offset", "op": "Const", "attr": {"value": {"tensor": {"dtype": "DT_FLOAT", "tensorShape": {"dim": [{"size": "44"}]}}}, "dtype": {"type": "DT_FLOAT"}}}, {"name": "StatefulPartitionedCall/sequential/NASNet/separable_conv_2_reduction_right3_reduce_4/separable_conv2d_weights", "op": "Const", "attr": {"value": {"tensor": {"dtype": "DT_FLOAT", "tensorShape": {"dim": [{"size": "1"}, {"size": "1"}, {"size": "88"}, {"size": "88"}]}}}, "dtype": {"type": "DT_FLOAT"}}}, {"name": "StatefulPartitionedCall/sequential/NASNet/separable_conv_2_reduction_right3_reduce_4/separable_conv2d_bn_offset", "op": "Const", "attr": {"value": {"tensor": {"dtype": "DT_FLOAT", "tensorShape": {"dim": [{"size": "88"}]}}}, "dtype": {"type": "DT_FLOAT"}}}, {"name": "StatefulPartitionedCall/sequential/NASNet/separable_conv_2_reduction_right2_reduce_4/separable_conv2d_weights", "op": "Const", "attr": {"value": {"tensor": {"dtype": "DT_FLOAT", "tensorShape": {"dim": [{"size": "1"}, {"size": "1"}, {"size": "88"}, {"size": "88"}]}}}, "dtype": {"type": "DT_FLOAT"}}}, {"name": "StatefulPartitionedCall/sequential/NASNet/separable_conv_2_reduction_right2_reduce_4/separable_conv2d_bn_offset", "op": "Const", "attr": {"value": {"tensor": {"dtype": "DT_FLOAT", "tensorShape": {"dim": [{"size": "88"}]}}}, "dtype": {"type": "DT_FLOAT"}}}, {"name": "StatefulPartitionedCall/sequential/NASNet/separable_conv_2_reduction_right1_reduce_4/separable_conv2d_weights", "op": "Const", "attr": {"value": {"tensor": {"dtype": "DT_FLOAT", "tensorShape": {"dim": [{"size": "1"}, {"size": "1"}, {"size": "88"}, {"size": "88"}]}}}, "dtype": {"type": "DT_FLOAT"}}}, {"name": "StatefulPartitionedCall/sequential/NASNet/separable_conv_2_normal_left1_10/separable_conv2d_weights", "op": "Const", "attr": {"value": {"tensor": {"dtype": "DT_FLOAT", "tensorShape": {"dim": [{"size": "1"}, {"size": "1"}, {"size": "176"}, {"size": "176"}]}}}, "dtype": {"type": "DT_FLOAT"}}}, {"name": "StatefulPartitionedCall/sequential/NASNet/separable_conv_2_reduction_right1_reduce_4/separable_conv2d_bn_offset", "op": "Const", "attr": {"value": {"tensor": {"dtype": "DT_FLOAT", "tensorShape": {"dim": [{"size": "88"}]}}}, "dtype": {"type": "DT_FLOAT"}}}, {"name": "StatefulPartitionedCall/sequential/NASNet/reduction_conv_1_reduce_4/Conv2D_weights", "op": "Const", "attr": {"value": {"tensor": {"dtype": "DT_FLOAT", "tensorShape": {"dim": [{"size": "1"}, {"size": "1"}, {"size": "264"}, {"size": "88"}]}}}, "dtype": {"type": "DT_FLOAT"}}}, {"name": "StatefulPartitionedCall/sequential/NASNet/reduction_conv_1_reduce_4/Conv2D_bn_offset", "op": "Const", "attr": {"value": {"tensor": {"dtype": "DT_FLOAT", "tensorShape": {"dim": [{"size": "88"}]}}}, "dtype": {"type": "DT_FLOAT"}}}, {"name": "StatefulPartitionedCall/sequential/NASNet/separable_conv_1_reduction_left1_reduce_4/separable_conv2d_weights", "op": "Const", "attr": {"value": {"tensor": {"dtype": "DT_FLOAT", "tensorShape": {"dim": [{"size": "1"}, {"size": "1"}, {"size": "88"}, {"size": "88"}]}}}, "dtype": {"type": "DT_FLOAT"}}}, {"name": "StatefulPartitionedCall/sequential/NASNet/separable_conv_2_normal_left1_10/separable_conv2d_bn_offset", "op": "Const", "attr": {"value": {"tensor": {"dtype": "DT_FLOAT", "tensorShape": {"dim": [{"size": "176"}]}}}, "dtype": {"type": "DT_FLOAT"}}}, {"name": "StatefulPartitionedCall/sequential/NASNet/separable_conv_1_reduction_left1_reduce_4/separable_conv2d_bn_offset", "op": "Const", "attr": {"value": {"tensor": {"dtype": "DT_FLOAT", "tensorShape": {"dim": [{"size": "88"}]}}}, "dtype": {"type": "DT_FLOAT"}}}, {"name": "StatefulPartitionedCall/sequential/NASNet/separable_conv_1_normal_right1_5/separable_conv2d_weights", "op": "Const", "attr": {"value": {"tensor": {"dtype": "DT_FLOAT", "tensorShape": {"dim": [{"size": "1"}, {"size": "1"}, {"size": "88"}, {"size": "88"}]}}}, "dtype": {"type": "DT_FLOAT"}}}, {"name": "StatefulPartitionedCall/sequential/NASNet/separable_conv_1_normal_right1_5/separable_conv2d_bn_offset", "op": "Const", "attr": {"value": {"tensor": {"dtype": "DT_FLOAT", "tensorShape": {"dim": [{"size": "88"}]}}}, "dtype": {"type": "DT_FLOAT"}}}, {"name": "StatefulPartitionedCall/sequential/NASNet/separable_conv_2_normal_left5_10/separable_conv2d_weights", "op": "Const", "attr": {"value": {"tensor": {"dtype": "DT_FLOAT", "tensorShape": {"dim": [{"size": "1"}, {"size": "1"}, {"size": "176"}, {"size": "176"}]}}}, "dtype": {"type": "DT_FLOAT"}}}, {"name": "StatefulPartitionedCall/sequential/NASNet/separable_conv_1_normal_left2_5/separable_conv2d_weights", "op": "Const", "attr": {"value": {"tensor": {"dtype": "DT_FLOAT", "tensorShape": {"dim": [{"size": "1"}, {"size": "1"}, {"size": "88"}, {"size": "88"}]}}}, "dtype": {"type": "DT_FLOAT"}}}, {"name": "StatefulPartitionedCall/sequential/NASNet/separable_conv_1_normal_left2_5/separable_conv2d_bn_offset", "op": "Const", "attr": {"value": {"tensor": {"dtype": "DT_FLOAT", "tensorShape": {"dim": [{"size": "88"}]}}}, "dtype": {"type": "DT_FLOAT"}}}, {"name": "StatefulPartitionedCall/sequential/NASNet/separable_conv_2_normal_left5_10/separable_conv2d_bn_offset", "op": "Const", "attr": {"value": {"tensor": {"dtype": "DT_FLOAT", "tensorShape": {"dim": [{"size": "176"}]}}}, "dtype": {"type": "DT_FLOAT"}}}, {"name": "StatefulPartitionedCall/sequential/NASNet/separable_conv_1_normal_right2_5/separable_conv2d_weights", "op": "Const", "attr": {"value": {"tensor": {"dtype": "DT_FLOAT", "tensorShape": {"dim": [{"size": "1"}, {"size": "1"}, {"size": "88"}, {"size": "88"}]}}}, "dtype": {"type": "DT_FLOAT"}}}, {"name": "StatefulPartitionedCall/sequential/NASNet/separable_conv_1_normal_right2_5/separable_conv2d_bn_offset", "op": "Const", "attr": {"value": {"tensor": {"dtype": "DT_FLOAT", "tensorShape": {"dim": [{"size": "88"}]}}}, "dtype": {"type": "DT_FLOAT"}}}, {"name": "StatefulPartitionedCall/sequential/NASNet/separable_conv_2_reduction_left1_reduce_4/separable_conv2d_weights", "op": "Const", "attr": {"value": {"tensor": {"dtype": "DT_FLOAT", "tensorShape": {"dim": [{"size": "1"}, {"size": "1"}, {"size": "88"}, {"size": "88"}]}}}, "dtype": {"type": "DT_FLOAT"}}}, {"name": "StatefulPartitionedCall/sequential/NASNet/separable_conv_2_reduction_left1_reduce_4/separable_conv2d_bn_offset", "op": "Const", "attr": {"value": {"tensor": {"dtype": "DT_FLOAT", "tensorShape": {"dim": [{"size": "88"}]}}}, "dtype": {"type": "DT_FLOAT"}}}, {"name": "StatefulPartitionedCall/sequential/NASNet/separable_conv_2_normal_right1_5/separable_conv2d_weights", "op": "Const", "attr": {"value": {"tensor": {"dtype": "DT_FLOAT", "tensorShape": {"dim": [{"size": "1"}, {"size": "1"}, {"size": "88"}, {"size": "88"}]}}}, "dtype": {"type": "DT_FLOAT"}}}, {"name": "StatefulPartitionedCall/sequential/NASNet/separable_conv_2_normal_right1_5/separable_conv2d_bn_offset", "op": "Const", "attr": {"value": {"tensor": {"dtype": "DT_FLOAT", "tensorShape": {"dim": [{"size": "88"}]}}}, "dtype": {"type": "DT_FLOAT"}}}, {"name": "StatefulPartitionedCall/sequential/NASNet/separable_conv_2_normal_left2_5/separable_conv2d_weights", "op": "Const", "attr": {"value": {"tensor": {"dtype": "DT_FLOAT", "tensorShape": {"dim": [{"size": "1"}, {"size": "1"}, {"size": "88"}, {"size": "88"}]}}}, "dtype": {"type": "DT_FLOAT"}}}, {"name": "StatefulPartitionedCall/sequential/NASNet/separable_conv_2_normal_left2_5/separable_conv2d_bn_offset", "op": "Const", "attr": {"value": {"tensor": {"dtype": "DT_FLOAT", "tensorShape": {"dim": [{"size": "88"}]}}}, "dtype": {"type": "DT_FLOAT"}}}, {"name": "StatefulPartitionedCall/sequential/NASNet/separable_conv_2_normal_right2_5/separable_conv2d_weights", "op": "Const", "attr": {"value": {"tensor": {"dtype": "DT_FLOAT", "tensorShape": {"dim": [{"size": "1"}, {"size": "1"}, {"size": "88"}, {"size": "88"}]}}}, "dtype": {"type": "DT_FLOAT"}}}, {"name": "StatefulPartitionedCall/sequential/NASNet/adjust_conv_projection_12/Conv2D_weights", "op": "Const", "attr": {"value": {"tensor": {"dtype": "DT_FLOAT", "tensorShape": {"dim": [{"size": "1"}, {"size": "1"}, {"size": "1056"}, {"size": "176"}]}}}, "dtype": {"type": "DT_FLOAT"}}}, {"name": "StatefulPartitionedCall/sequential/NASNet/separable_conv_2_normal_right2_5/separable_conv2d_bn_offset", "op": "Const", "attr": {"value": {"tensor": {"dtype": "DT_FLOAT", "tensorShape": {"dim": [{"size": "88"}]}}}, "dtype": {"type": "DT_FLOAT"}}}, {"name": "StatefulPartitionedCall/sequential/NASNet/separable_conv_1_reduction_left4_reduce_4/separable_conv2d_weights", "op": "Const", "attr": {"value": {"tensor": {"dtype": "DT_FLOAT", "tensorShape": {"dim": [{"size": "1"}, {"size": "1"}, {"size": "88"}, {"size": "88"}]}}}, "dtype": {"type": "DT_FLOAT"}}}, {"name": "StatefulPartitionedCall/sequential/NASNet/separable_conv_1_reduction_left4_reduce_4/separable_conv2d_bn_offset", "op": "Const", "attr": {"value": {"tensor": {"dtype": "DT_FLOAT", "tensorShape": {"dim": [{"size": "88"}]}}}, "dtype": {"type": "DT_FLOAT"}}}, {"name": "StatefulPartitionedCall/sequential/NASNet/adjust_conv_projection_12/Conv2D_bn_offset", "op": "Const", "attr": {"value": {"tensor": {"dtype": "DT_FLOAT", "tensorShape": {"dim": [{"size": "176"}]}}}, "dtype": {"type": "DT_FLOAT"}}}, {"name": "StatefulPartitionedCall/sequential/NASNet/separable_conv_2_reduction_left4_reduce_4/separable_conv2d_weights", "op": "Const", "attr": {"value": {"tensor": {"dtype": "DT_FLOAT", "tensorShape": {"dim": [{"size": "1"}, {"size": "1"}, {"size": "88"}, {"size": "88"}]}}}, "dtype": {"type": "DT_FLOAT"}}}, {"name": "StatefulPartitionedCall/sequential/NASNet/separable_conv_2_reduction_left4_reduce_4/separable_conv2d_bn_offset", "op": "Const", "attr": {"value": {"tensor": {"dtype": "DT_FLOAT", "tensorShape": {"dim": [{"size": "88"}]}}}, "dtype": {"type": "DT_FLOAT"}}}, {"name": "StatefulPartitionedCall/sequential/NASNet/adjust_conv_projection_6/Conv2D_weights", "op": "Const", "attr": {"value": {"tensor": {"dtype": "DT_FLOAT", "tensorShape": {"dim": [{"size": "1"}, {"size": "1"}, {"size": "352"}, {"size": "88"}]}}}, "dtype": {"type": "DT_FLOAT"}}}, {"name": "StatefulPartitionedCall/sequential/NASNet/adjust_conv_projection_6/Conv2D_bn_offset", "op": "Const", "attr": {"value": {"tensor": {"dtype": "DT_FLOAT", "tensorShape": {"dim": [{"size": "88"}]}}}, "dtype": {"type": "DT_FLOAT"}}}, {"name": "StatefulPartitionedCall/sequential/NASNet/normal_conv_1_5/Conv2D_weights", "op": "Const", "attr": {"value": {"tensor": {"dtype": "DT_FLOAT", "tensorShape": {"dim": [{"size": "1"}, {"size": "1"}, {"size": "352"}, {"size": "88"}]}}}, "dtype": {"type": "DT_FLOAT"}}}, {"name": "StatefulPartitionedCall/sequential/NASNet/normal_conv_1_5/Conv2D_bn_offset", "op": "Const", "attr": {"value": {"tensor": {"dtype": "DT_FLOAT", "tensorShape": {"dim": [{"size": "88"}]}}}, "dtype": {"type": "DT_FLOAT"}}}, {"name": "StatefulPartitionedCall/sequential/NASNet/separable_conv_1_normal_right1_6/separable_conv2d_weights", "op": "Const", "attr": {"value": {"tensor": {"dtype": "DT_FLOAT", "tensorShape": {"dim": [{"size": "1"}, {"size": "1"}, {"size": "88"}, {"size": "88"}]}}}, "dtype": {"type": "DT_FLOAT"}}}, {"name": "StatefulPartitionedCall/sequential/NASNet/separable_conv_1_normal_right1_6/separable_conv2d_bn_offset", "op": "Const", "attr": {"value": {"tensor": {"dtype": "DT_FLOAT", "tensorShape": {"dim": [{"size": "88"}]}}}, "dtype": {"type": "DT_FLOAT"}}}, {"name": "StatefulPartitionedCall/sequential/NASNet/separable_conv_1_normal_left2_6/separable_conv2d_weights", "op": "Const", "attr": {"value": {"tensor": {"dtype": "DT_FLOAT", "tensorShape": {"dim": [{"size": "1"}, {"size": "1"}, {"size": "88"}, {"size": "88"}]}}}, "dtype": {"type": "DT_FLOAT"}}}, {"name": "StatefulPartitionedCall/sequential/NASNet/separable_conv_1_normal_left2_6/separable_conv2d_bn_offset", "op": "Const", "attr": {"value": {"tensor": {"dtype": "DT_FLOAT", "tensorShape": {"dim": [{"size": "88"}]}}}, "dtype": {"type": "DT_FLOAT"}}}, {"name": "StatefulPartitionedCall/sequential/NASNet/separable_conv_1_normal_right2_6/separable_conv2d_weights", "op": "Const", "attr": {"value": {"tensor": {"dtype": "DT_FLOAT", "tensorShape": {"dim": [{"size": "1"}, {"size": "1"}, {"size": "88"}, {"size": "88"}]}}}, "dtype": {"type": "DT_FLOAT"}}}, {"name": "StatefulPartitionedCall/sequential/NASNet/separable_conv_1_normal_right2_6/separable_conv2d_bn_offset", "op": "Const", "attr": {"value": {"tensor": {"dtype": "DT_FLOAT", "tensorShape": {"dim": [{"size": "88"}]}}}, "dtype": {"type": "DT_FLOAT"}}}, {"name": "StatefulPartitionedCall/sequential/NASNet/separable_conv_1_normal_left1_5/separable_conv2d_weights", "op": "Const", "attr": {"value": {"tensor": {"dtype": "DT_FLOAT", "tensorShape": {"dim": [{"size": "1"}, {"size": "1"}, {"size": "88"}, {"size": "88"}]}}}, "dtype": {"type": "DT_FLOAT"}}}, {"name": "StatefulPartitionedCall/sequential/NASNet/separable_conv_1_normal_left1_5/separable_conv2d_bn_offset", "op": "Const", "attr": {"value": {"tensor": {"dtype": "DT_FLOAT", "tensorShape": {"dim": [{"size": "88"}]}}}, "dtype": {"type": "DT_FLOAT"}}}, {"name": "StatefulPartitionedCall/sequential/NASNet/normal_conv_1_11/Conv2D_weights", "op": "Const", "attr": {"value": {"tensor": {"dtype": "DT_FLOAT", "tensorShape": {"dim": [{"size": "1"}, {"size": "1"}, {"size": "1056"}, {"size": "176"}]}}}, "dtype": {"type": "DT_FLOAT"}}}, {"name": "StatefulPartitionedCall/sequential/NASNet/separable_conv_1_normal_left5_5/separable_conv2d_weights", "op": "Const", "attr": {"value": {"tensor": {"dtype": "DT_FLOAT", "tensorShape": {"dim": [{"size": "1"}, {"size": "1"}, {"size": "88"}, {"size": "88"}]}}}, "dtype": {"type": "DT_FLOAT"}}}, {"name": "StatefulPartitionedCall/sequential/NASNet/separable_conv_1_normal_left5_5/separable_conv2d_bn_offset", "op": "Const", "attr": {"value": {"tensor": {"dtype": "DT_FLOAT", "tensorShape": {"dim": [{"size": "88"}]}}}, "dtype": {"type": "DT_FLOAT"}}}, {"name": "StatefulPartitionedCall/sequential/NASNet/normal_conv_1_11/Conv2D_bn_offset", "op": "Const", "attr": {"value": {"tensor": {"dtype": "DT_FLOAT", "tensorShape": {"dim": [{"size": "176"}]}}}, "dtype": {"type": "DT_FLOAT"}}}, {"name": "StatefulPartitionedCall/sequential/NASNet/separable_conv_2_normal_right1_6/separable_conv2d_weights", "op": "Const", "attr": {"value": {"tensor": {"dtype": "DT_FLOAT", "tensorShape": {"dim": [{"size": "1"}, {"size": "1"}, {"size": "88"}, {"size": "88"}]}}}, "dtype": {"type": "DT_FLOAT"}}}, {"name": "StatefulPartitionedCall/sequential/NASNet/separable_conv_2_normal_right1_6/separable_conv2d_bn_offset", "op": "Const", "attr": {"value": {"tensor": {"dtype": "DT_FLOAT", "tensorShape": {"dim": [{"size": "88"}]}}}, "dtype": {"type": "DT_FLOAT"}}}, {"name": "StatefulPartitionedCall/sequential/NASNet/separable_conv_2_normal_left2_6/separable_conv2d_weights", "op": "Const", "attr": {"value": {"tensor": {"dtype": "DT_FLOAT", "tensorShape": {"dim": [{"size": "1"}, {"size": "1"}, {"size": "88"}, {"size": "88"}]}}}, "dtype": {"type": "DT_FLOAT"}}}, {"name": "StatefulPartitionedCall/sequential/NASNet/separable_conv_2_normal_left2_6/separable_conv2d_bn_offset", "op": "Const", "attr": {"value": {"tensor": {"dtype": "DT_FLOAT", "tensorShape": {"dim": [{"size": "88"}]}}}, "dtype": {"type": "DT_FLOAT"}}}, {"name": "StatefulPartitionedCall/sequential/NASNet/separable_conv_2_normal_right2_6/separable_conv2d_weights", "op": "Const", "attr": {"value": {"tensor": {"dtype": "DT_FLOAT", "tensorShape": {"dim": [{"size": "1"}, {"size": "1"}, {"size": "88"}, {"size": "88"}]}}}, "dtype": {"type": "DT_FLOAT"}}}, {"name": "StatefulPartitionedCall/sequential/NASNet/separable_conv_2_normal_right2_6/separable_conv2d_bn_offset", "op": "Const", "attr": {"value": {"tensor": {"dtype": "DT_FLOAT", "tensorShape": {"dim": [{"size": "88"}]}}}, "dtype": {"type": "DT_FLOAT"}}}, {"name": "StatefulPartitionedCall/sequential/NASNet/separable_conv_2_normal_left1_5/separable_conv2d_weights", "op": "Const", "attr": {"value": {"tensor": {"dtype": "DT_FLOAT", "tensorShape": {"dim": [{"size": "1"}, {"size": "1"}, {"size": "88"}, {"size": "88"}]}}}, "dtype": {"type": "DT_FLOAT"}}}, {"name": "StatefulPartitionedCall/sequential/NASNet/separable_conv_2_normal_left1_5/separable_conv2d_bn_offset", "op": "Const", "attr": {"value": {"tensor": {"dtype": "DT_FLOAT", "tensorShape": {"dim": [{"size": "88"}]}}}, "dtype": {"type": "DT_FLOAT"}}}, {"name": "StatefulPartitionedCall/sequential/NASNet/separable_conv_2_normal_left5_5/separable_conv2d_weights", "op": "Const", "attr": {"value": {"tensor": {"dtype": "DT_FLOAT", "tensorShape": {"dim": [{"size": "1"}, {"size": "1"}, {"size": "88"}, {"size": "88"}]}}}, "dtype": {"type": "DT_FLOAT"}}}, {"name": "StatefulPartitionedCall/sequential/NASNet/separable_conv_2_normal_left5_5/separable_conv2d_bn_offset", "op": "Const", "attr": {"value": {"tensor": {"dtype": "DT_FLOAT", "tensorShape": {"dim": [{"size": "88"}]}}}, "dtype": {"type": "DT_FLOAT"}}}, {"name": "StatefulPartitionedCall/sequential/NASNet/adjust_conv_projection_7/Conv2D_weights", "op": "Const", "attr": {"value": {"tensor": {"dtype": "DT_FLOAT", "tensorShape": {"dim": [{"size": "1"}, {"size": "1"}, {"size": "528"}, {"size": "88"}]}}}, "dtype": {"type": "DT_FLOAT"}}}, {"name": "StatefulPartitionedCall/sequential/NASNet/adjust_conv_projection_7/Conv2D_bn_offset", "op": "Const", "attr": {"value": {"tensor": {"dtype": "DT_FLOAT", "tensorShape": {"dim": [{"size": "88"}]}}}, "dtype": {"type": "DT_FLOAT"}}}, {"name": "StatefulPartitionedCall/sequential/NASNet/normal_conv_1_6/Conv2D_weights", "op": "Const", "attr": {"value": {"tensor": {"dtype": "DT_FLOAT", "tensorShape": {"dim": [{"size": "1"}, {"size": "1"}, {"size": "528"}, {"size": "88"}]}}}, "dtype": {"type": "DT_FLOAT"}}}, {"name": "StatefulPartitionedCall/sequential/NASNet/normal_conv_1_6/Conv2D_bn_offset", "op": "Const", "attr": {"value": {"tensor": {"dtype": "DT_FLOAT", "tensorShape": {"dim": [{"size": "88"}]}}}, "dtype": {"type": "DT_FLOAT"}}}, {"name": "StatefulPartitionedCall/sequential/NASNet/separable_conv_1_normal_right1_7/separable_conv2d_weights", "op": "Const", "attr": {"value": {"tensor": {"dtype": "DT_FLOAT", "tensorShape": {"dim": [{"size": "1"}, {"size": "1"}, {"size": "88"}, {"size": "88"}]}}}, "dtype": {"type": "DT_FLOAT"}}}, {"name": "StatefulPartitionedCall/sequential/NASNet/separable_conv_1_normal_right1_12/separable_conv2d_weights", "op": "Const", "attr": {"value": {"tensor": {"dtype": "DT_FLOAT", "tensorShape": {"dim": [{"size": "1"}, {"size": "1"}, {"size": "176"}, {"size": "176"}]}}}, "dtype": {"type": "DT_FLOAT"}}}, {"name": "StatefulPartitionedCall/sequential/NASNet/separable_conv_1_normal_right1_7/separable_conv2d_bn_offset", "op": "Const", "attr": {"value": {"tensor": {"dtype": "DT_FLOAT", "tensorShape": {"dim": [{"size": "88"}]}}}, "dtype": {"type": "DT_FLOAT"}}}, {"name": "StatefulPartitionedCall/sequential/NASNet/separable_conv_1_normal_left2_7/separable_conv2d_weights", "op": "Const", "attr": {"value": {"tensor": {"dtype": "DT_FLOAT", "tensorShape": {"dim": [{"size": "1"}, {"size": "1"}, {"size": "88"}, {"size": "88"}]}}}, "dtype": {"type": "DT_FLOAT"}}}, {"name": "StatefulPartitionedCall/sequential/NASNet/separable_conv_1_normal_right1_12/separable_conv2d_bn_offset", "op": "Const", "attr": {"value": {"tensor": {"dtype": "DT_FLOAT", "tensorShape": {"dim": [{"size": "176"}]}}}, "dtype": {"type": "DT_FLOAT"}}}, {"name": "StatefulPartitionedCall/sequential/NASNet/separable_conv_1_normal_left2_7/separable_conv2d_bn_offset", "op": "Const", "attr": {"value": {"tensor": {"dtype": "DT_FLOAT", "tensorShape": {"dim": [{"size": "88"}]}}}, "dtype": {"type": "DT_FLOAT"}}}, {"name": "StatefulPartitionedCall/sequential/NASNet/separable_conv_1_normal_right2_7/separable_conv2d_weights", "op": "Const", "attr": {"value": {"tensor": {"dtype": "DT_FLOAT", "tensorShape": {"dim": [{"size": "1"}, {"size": "1"}, {"size": "88"}, {"size": "88"}]}}}, "dtype": {"type": "DT_FLOAT"}}}, {"name": "StatefulPartitionedCall/sequential/NASNet/separable_conv_1_normal_right2_7/separable_conv2d_bn_offset", "op": "Const", "attr": {"value": {"tensor": {"dtype": "DT_FLOAT", "tensorShape": {"dim": [{"size": "88"}]}}}, "dtype": {"type": "DT_FLOAT"}}}, {"name": "StatefulPartitionedCall/sequential/NASNet/separable_conv_1_normal_left1_6/separable_conv2d_weights", "op": "Const", "attr": {"value": {"tensor": {"dtype": "DT_FLOAT", "tensorShape": {"dim": [{"size": "1"}, {"size": "1"}, {"size": "88"}, {"size": "88"}]}}}, "dtype": {"type": "DT_FLOAT"}}}, {"name": "StatefulPartitionedCall/sequential/NASNet/separable_conv_1_normal_left2_12/separable_conv2d_weights", "op": "Const", "attr": {"value": {"tensor": {"dtype": "DT_FLOAT", "tensorShape": {"dim": [{"size": "1"}, {"size": "1"}, {"size": "176"}, {"size": "176"}]}}}, "dtype": {"type": "DT_FLOAT"}}}, {"name": "StatefulPartitionedCall/sequential/NASNet/separable_conv_1_normal_left1_6/separable_conv2d_bn_offset", "op": "Const", "attr": {"value": {"tensor": {"dtype": "DT_FLOAT", "tensorShape": {"dim": [{"size": "88"}]}}}, "dtype": {"type": "DT_FLOAT"}}}, {"name": "StatefulPartitionedCall/sequential/NASNet/adjust_bn_9/FusedBatchNormV3/Scaled", "op": "Const", "attr": {"value": {"tensor": {"dtype": "DT_FLOAT", "tensorShape": {"dim": [{"size": "176"}]}}}, "dtype": {"type": "DT_FLOAT"}}}, {"name": "StatefulPartitionedCall/sequential/NASNet/separable_conv_1_normal_left5_6/separable_conv2d_weights", "op": "Const", "attr": {"value": {"tensor": {"dtype": "DT_FLOAT", "tensorShape": {"dim": [{"size": "1"}, {"size": "1"}, {"size": "88"}, {"size": "88"}]}}}, "dtype": {"type": "DT_FLOAT"}}}, {"name": "StatefulPartitionedCall/sequential/NASNet/separable_conv_1_normal_left2_12/separable_conv2d_bn_offset", "op": "Const", "attr": {"value": {"tensor": {"dtype": "DT_FLOAT", "tensorShape": {"dim": [{"size": "176"}]}}}, "dtype": {"type": "DT_FLOAT"}}}, {"name": "StatefulPartitionedCall/sequential/NASNet/separable_conv_1_normal_left5_6/separable_conv2d_bn_offset", "op": "Const", "attr": {"value": {"tensor": {"dtype": "DT_FLOAT", "tensorShape": {"dim": [{"size": "88"}]}}}, "dtype": {"type": "DT_FLOAT"}}}, {"name": "StatefulPartitionedCall/sequential/NASNet/separable_conv_2_normal_right1_7/separable_conv2d_weights", "op": "Const", "attr": {"value": {"tensor": {"dtype": "DT_FLOAT", "tensorShape": {"dim": [{"size": "1"}, {"size": "1"}, {"size": "88"}, {"size": "88"}]}}}, "dtype": {"type": "DT_FLOAT"}}}, {"name": "StatefulPartitionedCall/sequential/NASNet/separable_conv_2_normal_right1_7/separable_conv2d_bn_offset", "op": "Const", "attr": {"value": {"tensor": {"dtype": "DT_FLOAT", "tensorShape": {"dim": [{"size": "88"}]}}}, "dtype": {"type": "DT_FLOAT"}}}, {"name": "StatefulPartitionedCall/sequential/NASNet/separable_conv_2_normal_left2_7/separable_conv2d_weights", "op": "Const", "attr": {"value": {"tensor": {"dtype": "DT_FLOAT", "tensorShape": {"dim": [{"size": "1"}, {"size": "1"}, {"size": "88"}, {"size": "88"}]}}}, "dtype": {"type": "DT_FLOAT"}}}, {"name": "StatefulPartitionedCall/sequential/NASNet/separable_conv_2_normal_left2_7/separable_conv2d_bn_offset", "op": "Const", "attr": {"value": {"tensor": {"dtype": "DT_FLOAT", "tensorShape": {"dim": [{"size": "88"}]}}}, "dtype": {"type": "DT_FLOAT"}}}, {"name": "StatefulPartitionedCall/sequential/NASNet/separable_conv_2_normal_right2_7/separable_conv2d_weights", "op": "Const", "attr": {"value": {"tensor": {"dtype": "DT_FLOAT", "tensorShape": {"dim": [{"size": "1"}, {"size": "1"}, {"size": "88"}, {"size": "88"}]}}}, "dtype": {"type": "DT_FLOAT"}}}, {"name": "StatefulPartitionedCall/sequential/NASNet/separable_conv_1_normal_right2_12/separable_conv2d_weights", "op": "Const", "attr": {"value": {"tensor": {"dtype": "DT_FLOAT", "tensorShape": {"dim": [{"size": "1"}, {"size": "1"}, {"size": "176"}, {"size": "176"}]}}}, "dtype": {"type": "DT_FLOAT"}}}, {"name": "StatefulPartitionedCall/sequential/NASNet/separable_conv_2_normal_right2_7/separable_conv2d_bn_offset", "op": "Const", "attr": {"value": {"tensor": {"dtype": "DT_FLOAT", "tensorShape": {"dim": [{"size": "88"}]}}}, "dtype": {"type": "DT_FLOAT"}}}, {"name": "StatefulPartitionedCall/sequential/NASNet/separable_conv_2_normal_left1_6/separable_conv2d_weights", "op": "Const", "attr": {"value": {"tensor": {"dtype": "DT_FLOAT", "tensorShape": {"dim": [{"size": "1"}, {"size": "1"}, {"size": "88"}, {"size": "88"}]}}}, "dtype": {"type": "DT_FLOAT"}}}, {"name": "StatefulPartitionedCall/sequential/NASNet/separable_conv_2_normal_left1_6/separable_conv2d_bn_offset", "op": "Const", "attr": {"value": {"tensor": {"dtype": "DT_FLOAT", "tensorShape": {"dim": [{"size": "88"}]}}}, "dtype": {"type": "DT_FLOAT"}}}, {"name": "StatefulPartitionedCall/sequential/NASNet/separable_conv_2_normal_left5_6/separable_conv2d_weights", "op": "Const", "attr": {"value": {"tensor": {"dtype": "DT_FLOAT", "tensorShape": {"dim": [{"size": "1"}, {"size": "1"}, {"size": "88"}, {"size": "88"}]}}}, "dtype": {"type": "DT_FLOAT"}}}, {"name": "StatefulPartitionedCall/sequential/NASNet/separable_conv_1_normal_right2_12/separable_conv2d_bn_offset", "op": "Const", "attr": {"value": {"tensor": {"dtype": "DT_FLOAT", "tensorShape": {"dim": [{"size": "176"}]}}}, "dtype": {"type": "DT_FLOAT"}}}, {"name": "StatefulPartitionedCall/sequential/NASNet/separable_conv_2_normal_left5_6/separable_conv2d_bn_offset", "op": "Const", "attr": {"value": {"tensor": {"dtype": "DT_FLOAT", "tensorShape": {"dim": [{"size": "88"}]}}}, "dtype": {"type": "DT_FLOAT"}}}, {"name": "StatefulPartitionedCall/sequential/NASNet/adjust_conv_projection_8/Conv2D_weights", "op": "Const", "attr": {"value": {"tensor": {"dtype": "DT_FLOAT", "tensorShape": {"dim": [{"size": "1"}, {"size": "1"}, {"size": "528"}, {"size": "88"}]}}}, "dtype": {"type": "DT_FLOAT"}}}, {"name": "StatefulPartitionedCall/sequential/NASNet/adjust_bn_9/FusedBatchNormV3/Offset", "op": "Const", "attr": {"value": {"tensor": {"dtype": "DT_FLOAT", "tensorShape": {"dim": [{"size": "176"}]}}}, "dtype": {"type": "DT_FLOAT"}}}, {"name": "StatefulPartitionedCall/sequential/NASNet/adjust_conv_projection_8/Conv2D_bn_offset", "op": "Const", "attr": {"value": {"tensor": {"dtype": "DT_FLOAT", "tensorShape": {"dim": [{"size": "88"}]}}}, "dtype": {"type": "DT_FLOAT"}}}, {"name": "StatefulPartitionedCall/sequential/NASNet/normal_conv_1_7/Conv2D_weights", "op": "Const", "attr": {"value": {"tensor": {"dtype": "DT_FLOAT", "tensorShape": {"dim": [{"size": "1"}, {"size": "1"}, {"size": "528"}, {"size": "88"}]}}}, "dtype": {"type": "DT_FLOAT"}}}, {"name": "StatefulPartitionedCall/sequential/NASNet/normal_conv_1_7/Conv2D_bn_offset", "op": "Const", "attr": {"value": {"tensor": {"dtype": "DT_FLOAT", "tensorShape": {"dim": [{"size": "88"}]}}}, "dtype": {"type": "DT_FLOAT"}}}, {"name": "StatefulPartitionedCall/sequential/NASNet/separable_conv_1_normal_right1_8/separable_conv2d_weights", "op": "Const", "attr": {"value": {"tensor": {"dtype": "DT_FLOAT", "tensorShape": {"dim": [{"size": "1"}, {"size": "1"}, {"size": "88"}, {"size": "88"}]}}}, "dtype": {"type": "DT_FLOAT"}}}, {"name": "StatefulPartitionedCall/sequential/NASNet/separable_conv_1_normal_right1_8/separable_conv2d_bn_offset", "op": "Const", "attr": {"value": {"tensor": {"dtype": "DT_FLOAT", "tensorShape": {"dim": [{"size": "88"}]}}}, "dtype": {"type": "DT_FLOAT"}}}, {"name": "StatefulPartitionedCall/sequential/NASNet/separable_conv_1_normal_left1_11/separable_conv2d_weights", "op": "Const", "attr": {"value": {"tensor": {"dtype": "DT_FLOAT", "tensorShape": {"dim": [{"size": "1"}, {"size": "1"}, {"size": "176"}, {"size": "176"}]}}}, "dtype": {"type": "DT_FLOAT"}}}, {"name": "StatefulPartitionedCall/sequential/NASNet/separable_conv_1_normal_left2_8/separable_conv2d_weights", "op": "Const", "attr": {"value": {"tensor": {"dtype": "DT_FLOAT", "tensorShape": {"dim": [{"size": "1"}, {"size": "1"}, {"size": "88"}, {"size": "88"}]}}}, "dtype": {"type": "DT_FLOAT"}}}, {"name": "StatefulPartitionedCall/sequential/NASNet/separable_conv_1_normal_left2_8/separable_conv2d_bn_offset", "op": "Const", "attr": {"value": {"tensor": {"dtype": "DT_FLOAT", "tensorShape": {"dim": [{"size": "88"}]}}}, "dtype": {"type": "DT_FLOAT"}}}, {"name": "StatefulPartitionedCall/sequential/NASNet/separable_conv_1_normal_left1_11/separable_conv2d_bn_offset", "op": "Const", "attr": {"value": {"tensor": {"dtype": "DT_FLOAT", "tensorShape": {"dim": [{"size": "176"}]}}}, "dtype": {"type": "DT_FLOAT"}}}, {"name": "StatefulPartitionedCall/sequential/NASNet/separable_conv_1_normal_right2_8/separable_conv2d_weights", "op": "Const", "attr": {"value": {"tensor": {"dtype": "DT_FLOAT", "tensorShape": {"dim": [{"size": "1"}, {"size": "1"}, {"size": "88"}, {"size": "88"}]}}}, "dtype": {"type": "DT_FLOAT"}}}, {"name": "StatefulPartitionedCall/sequential/NASNet/separable_conv_1_normal_right2_8/separable_conv2d_bn_offset", "op": "Const", "attr": {"value": {"tensor": {"dtype": "DT_FLOAT", "tensorShape": {"dim": [{"size": "88"}]}}}, "dtype": {"type": "DT_FLOAT"}}}, {"name": "StatefulPartitionedCall/sequential/NASNet/separable_conv_1_normal_left1_7/separable_conv2d_weights", "op": "Const", "attr": {"value": {"tensor": {"dtype": "DT_FLOAT", "tensorShape": {"dim": [{"size": "1"}, {"size": "1"}, {"size": "88"}, {"size": "88"}]}}}, "dtype": {"type": "DT_FLOAT"}}}, {"name": "StatefulPartitionedCall/sequential/NASNet/separable_conv_1_normal_left1_7/separable_conv2d_bn_offset", "op": "Const", "attr": {"value": {"tensor": {"dtype": "DT_FLOAT", "tensorShape": {"dim": [{"size": "88"}]}}}, "dtype": {"type": "DT_FLOAT"}}}, {"name": "StatefulPartitionedCall/sequential/NASNet/separable_conv_1_normal_left5_11/separable_conv2d_weights", "op": "Const", "attr": {"value": {"tensor": {"dtype": "DT_FLOAT", "tensorShape": {"dim": [{"size": "1"}, {"size": "1"}, {"size": "176"}, {"size": "176"}]}}}, "dtype": {"type": "DT_FLOAT"}}}, {"name": "StatefulPartitionedCall/sequential/NASNet/separable_conv_1_normal_left5_7/separable_conv2d_weights", "op": "Const", "attr": {"value": {"tensor": {"dtype":…
separable_conv2d_bn_offset", "shape": [176], "dtype": "float32"}, {"name": "StatefulPartitionedCall/sequential/NASNet/separable_conv_1_reduction_left1_stem_2/separable_conv2d_bn_offset", "shape": [22], "dtype": "float32"}, {"name": "StatefulPartitionedCall/sequential/NASNet/separable_conv_1_normal_right1_0/separable_conv2d_weights", "shape": [1, 1, 44, 44], "dtype": "float32"}, {"name": "StatefulPartitionedCall/sequential/NASNet/separable_conv_1_normal_right1_0/separable_conv2d_bn_offset", "shape": [44], "dtype": "float32"}, {"name": "StatefulPartitionedCall/sequential/NASNet/separable_conv_2_normal_left1_9/separable_conv2d_weights", "shape": [1, 1, 176, 176], "dtype": "float32"}, {"name": "StatefulPartitionedCall/sequential/NASNet/separable_conv_1_normal_left2_0/separable_conv2d_weights", "shape": [1, 1, 44, 44], "dtype": "float32"}, {"name": "StatefulPartitionedCall/sequential/NASNet/separable_conv_1_normal_left2_0/separable_conv2d_bn_offset", "shape": [44], "dtype": "float32"}, {"name": "StatefulPartitionedCall/sequential/NASNet/separable_conv_2_normal_left1_9/separable_conv2d_bn_offset", "shape": [176], "dtype": "float32"}, {"name": "StatefulPartitionedCall/sequential/NASNet/separable_conv_1_normal_right2_0/separable_conv2d_weights", "shape": [1, 1, 44, 44], "dtype": "float32"}, {"name": "StatefulPartitionedCall/sequential/NASNet/separable_conv_1_normal_right2_0/separable_conv2d_bn_offset", "shape": [44], "dtype": "float32"}, {"name": "StatefulPartitionedCall/sequential/NASNet/separable_conv_2_reduction_left1_stem_2/separable_conv2d_weights", "shape": [1, 1, 22, 22], "dtype": "float32"}, {"name": "StatefulPartitionedCall/sequential/NASNet/separable_conv_2_normal_left5_9/separable_conv2d_weights", "shape": [1, 1, 176, 176], "dtype": "float32"}, {"name": "StatefulPartitionedCall/sequential/NASNet/separable_conv_2_reduction_left1_stem_2/separable_conv2d_bn_offset", "shape": [22], "dtype": "float32"}, {"name": "StatefulPartitionedCall/sequential/NASNet/separable_conv_2_normal_right1_0/separable_conv2d_weights", "shape": [1, 1, 44, 44], "dtype": "float32"}, {"name": "StatefulPartitionedCall/sequential/NASNet/separable_conv_2_normal_right1_0/separable_conv2d_bn_offset", "shape": [44], "dtype": "float32"}, {"name": "StatefulPartitionedCall/sequential/NASNet/separable_conv_2_normal_left2_0/separable_conv2d_weights", "shape": [1, 1, 44, 44], "dtype": "float32"}, {"name": "StatefulPartitionedCall/sequential/NASNet/separable_conv_2_normal_left5_9/separable_conv2d_bn_offset", "shape": [176], "dtype": "float32"}, {"name": "StatefulPartitionedCall/sequential/NASNet/separable_conv_2_normal_left2_0/separable_conv2d_bn_offset", "shape": [44], "dtype": "float32"}, {"name": "StatefulPartitionedCall/sequential/NASNet/separable_conv_2_normal_right2_0/separable_conv2d_weights", "shape": [1, 1, 44, 44], "dtype": "float32"}, {"name": "StatefulPartitionedCall/sequential/NASNet/separable_conv_2_normal_right2_0/separable_conv2d_bn_offset", "shape": [44], "dtype": "float32"}, {"name": "StatefulPartitionedCall/sequential/NASNet/separable_conv_1_reduction_left4_stem_2/separable_conv2d_weights", "shape": [1, 1, 22, 22], "dtype": "float32"}, {"name": "StatefulPartitionedCall/sequential/NASNet/separable_conv_1_reduction_left4_stem_2/separable_conv2d_bn_offset", "shape": [22], "dtype": "float32"}, {"name": "StatefulPartitionedCall/sequential/NASNet/separable_conv_2_reduction_left4_stem_2/separable_conv2d_weights", "shape": [1, 1, 22, 22], "dtype": "float32"}, {"name": "StatefulPartitionedCall/sequential/NASNet/separable_conv_2_reduction_left4_stem_2/separable_conv2d_bn_offset", "shape": [22], "dtype": "float32"}, {"name": "StatefulPartitionedCall/sequential/NASNet/adjust_conv_projection_1/Conv2D_weights", "shape": [1, 1, 88, 44], "dtype": "float32"}, {"name": "StatefulPartitionedCall/sequential/NASNet/adjust_conv_projection_1/Conv2D_bn_offset", "shape": [44], "dtype": "float32"}, {"name": "StatefulPartitionedCall/sequential/NASNet/normal_conv_1_0/Conv2D_weights", "shape": [1, 1, 88, 44], "dtype": "float32"}, {"name": "StatefulPartitionedCall/sequential/NASNet/adjust_conv_projection_11/Conv2D_weights", "shape": [1, 1, 1056, 176], "dtype": "float32"}, {"name": "StatefulPartitionedCall/sequential/NASNet/normal_conv_1_0/Conv2D_bn_offset", "shape": [44], "dtype": "float32"}, {"name": "StatefulPartitionedCall/sequential/NASNet/separable_conv_1_normal_right1_1/separable_conv2d_weights", "shape": [1, 1, 44, 44], "dtype": "float32"}, {"name": "StatefulPartitionedCall/sequential/NASNet/separable_conv_2_normal_left5_12/separable_conv2d_weights", "shape": [1, 1, 176, 176], "dtype": "float32"}, {"name": "StatefulPartitionedCall/sequential/NASNet/separable_conv_1_normal_right1_1/separable_conv2d_bn_offset", "shape": [44], "dtype": "float32"}, {"name": "StatefulPartitionedCall/sequential/NASNet/adjust_conv_projection_11/Conv2D_bn_offset", "shape": [176], "dtype": "float32"}, {"name": "StatefulPartitionedCall/sequential/NASNet/separable_conv_1_normal_left2_1/separable_conv2d_weights", "shape": [1, 1, 44, 44], "dtype": "float32"}, {"name": "StatefulPartitionedCall/sequential/NASNet/separable_conv_1_normal_left2_1/separable_conv2d_bn_offset", "shape": [44], "dtype": "float32"}, {"name": "StatefulPartitionedCall/sequential/NASNet/separable_conv_1_normal_right2_1/separable_conv2d_weights", "shape": [1, 1, 44, 44], "dtype": "float32"}, {"name": "StatefulPartitionedCall/sequential/NASNet/separable_conv_1_normal_right2_1/separable_conv2d_bn_offset", "shape": [44], "dtype": "float32"}, {"name": "StatefulPartitionedCall/sequential/NASNet/separable_conv_1_normal_left1_0/separable_conv2d_weights", "shape": [1, 1, 44, 44], "dtype": "float32"}, {"name": "StatefulPartitionedCall/sequential/NASNet/separable_conv_1_normal_left1_0/separable_conv2d_bn_offset", "shape": [44], "dtype": "float32"}, {"name": "StatefulPartitionedCall/sequential/NASNet/separable_conv_1_normal_left5_0/separable_conv2d_weights", "shape": [1, 1, 44, 44], "dtype": "float32"}, {"name": "StatefulPartitionedCall/sequential/NASNet/separable_conv_1_normal_left5_0/separable_conv2d_bn_offset", "shape": [44], "dtype": "float32"}, {"name": "StatefulPartitionedCall/sequential/NASNet/separable_conv_2_normal_right1_1/separable_conv2d_weights", "shape": [1, 1, 44, 44], "dtype": "float32"}, {"name": "StatefulPartitionedCall/sequential/NASNet/separable_conv_2_normal_right1_1/separable_conv2d_bn_offset", "shape": [44], "dtype": "float32"}, {"name": "StatefulPartitionedCall/sequential/NASNet/separable_conv_2_normal_left2_1/separable_conv2d_weights", "shape": [1, 1, 44, 44], "dtype": "float32"}, {"name": "StatefulPartitionedCall/sequential/NASNet/separable_conv_2_normal_left2_1/separable_conv2d_bn_offset", "shape": [44], "dtype": "float32"}, {"name": "StatefulPartitionedCall/sequential/NASNet/separable_conv_2_normal_right2_1/separable_conv2d_weights", "shape": [1, 1, 44, 44], "dtype": "float32"}, {"name": "StatefulPartitionedCall/sequential/NASNet/normal_conv_1_10/Conv2D_weights", "shape": [1, 1, 1056, 176], "dtype": "float32"}, {"name": "StatefulPartitionedCall/sequential/NASNet/separable_conv_2_normal_right2_1/separable_conv2d_bn_offset", "shape": [44], "dtype": "float32"}, {"name": "StatefulPartitionedCall/sequential/NASNet/separable_conv_2_normal_left1_0/separable_conv2d_weights", "shape": [1, 1, 44, 44], "dtype": "float32"}, {"name": "StatefulPartitionedCall/sequential/NASNet/separable_conv_2_normal_left1_0/separable_conv2d_bn_offset", "shape": [44], "dtype": "float32"}, {"name": "StatefulPartitionedCall/sequential/NASNet/separable_conv_2_normal_left5_0/separable_conv2d_weights", "shape": [1, 1, 44, 44], "dtype": "float32"}, {"name": "StatefulPartitionedCall/sequential/NASNet/normal_conv_1_10/Conv2D_bn_offset", "shape": [176], "dtype": "float32"}, {"name": "StatefulPartitionedCall/sequential/NASNet/separable_conv_2_normal_left5_0/separable_conv2d_bn_offset", "shape": [44], "dtype": "float32"}, {"name": "StatefulPartitionedCall/sequential/NASNet/adjust_conv_projection_2/Conv2D_weights", "shape": [1, 1, 264, 44], "dtype": "float32"}, {"name": "StatefulPartitionedCall/sequential/NASNet/adjust_conv_projection_2/Conv2D_bn_offset", "shape": [44], "dtype": "float32"}, {"name": "StatefulPartitionedCall/sequential/NASNet/normal_conv_1_1/Conv2D_weights", "shape": [1, 1, 264, 44], "dtype": "float32"}, {"name": "StatefulPartitionedCall/sequential/NASNet/normal_conv_1_1/Conv2D_bn_offset", "shape": [44], "dtype": "float32"}, {"name": "StatefulPartitionedCall/sequential/NASNet/separable_conv_1_normal_right1_2/separable_conv2d_weights", "shape": [1, 1, 44, 44], "dtype": "float32"}, {"name": "StatefulPartitionedCall/sequential/NASNet/separable_conv_1_normal_right1_2/separable_conv2d_bn_offset", "shape": [44], "dtype": "float32"}, {"name": "StatefulPartitionedCall/sequential/NASNet/separable_conv_1_normal_left2_2/separable_conv2d_weights", "shape": [1, 1, 44, 44], "dtype": "float32"}, {"name": "StatefulPartitionedCall/sequential/NASNet/separable_conv_1_normal_left2_2/separable_conv2d_bn_offset", "shape": [44], "dtype": "float32"}, {"name": "StatefulPartitionedCall/sequential/NASNet/separable_conv_1_normal_right2_2/separable_conv2d_weights", "shape": [1, 1, 44, 44], "dtype": "float32"}, {"name": "StatefulPartitionedCall/sequential/NASNet/separable_conv_1_normal_right2_2/separable_conv2d_bn_offset", "shape": [44], "dtype": "float32"}, {"name": "StatefulPartitionedCall/sequential/NASNet/separable_conv_1_normal_right1_11/separable_conv2d_weights", "shape": [1, 1, 176, 176], "dtype": "float32"}, {"name": "StatefulPartitionedCall/sequential/NASNet/separable_conv_1_normal_left1_1/separable_conv2d_weights", "shape": [1, 1, 44, 44], "dtype": "float32"}, {"name": "StatefulPartitionedCall/sequential/NASNet/separable_conv_2_normal_left5_12/separable_conv2d_bn_offset", "shape": [176], "dtype": "float32"}, {"name": "StatefulPartitionedCall/sequential/NASNet/separable_conv_1_normal_left1_1/separable_conv2d_bn_offset", "shape": [44], "dtype": "float32"}, {"name": "StatefulPartitionedCall/sequential/NASNet/separable_conv_1_normal_right1_11/separable_conv2d_bn_offset", "shape": [176], "dtype": "float32"}, {"name": "StatefulPartitionedCall/sequential/NASNet/separable_conv_1_normal_left5_1/separable_conv2d_weights", "shape": [1, 1, 44, 44], "dtype": "float32"}, {"name": "StatefulPartitionedCall/sequential/NASNet/separable_conv_1_normal_left5_1/separable_conv2d_bn_offset", "shape": [44], "dtype": "float32"}, {"name": "StatefulPartitionedCall/sequential/NASNet/separable_conv_2_normal_right1_2/separable_conv2d_weights", "shape": [1, 1, 44, 44], "dtype": "float32"}, {"name": "StatefulPartitionedCall/sequential/NASNet/separable_conv_2_normal_right1_2/separable_conv2d_bn_offset", "shape": [44], "dtype": "float32"}, {"name": "StatefulPartitionedCall/sequential/NASNet/separable_conv_2_normal_left2_2/separable_conv2d_weights", "shape": [1, 1, 44, 44], "dtype": "float32"}, {"name": "StatefulPartitionedCall/sequential/NASNet/separable_conv_1_normal_left2_11/separable_conv2d_weights", "shape": [1, 1, 176, 176], "dtype": "float32"}, {"name": "StatefulPartitionedCall/sequential/NASNet/separable_conv_2_normal_left2_2/separable_conv2d_bn_offset", "shape": [44], "dtype": "float32"}, {"name": "StatefulPartitionedCall/sequential/NASNet/separable_conv_2_normal_right2_2/separable_conv2d_weights", "shape": [1, 1, 44, 44], "dtype": "float32"}, {"name": "StatefulPartitionedCall/sequential/NASNet/separable_conv_2_normal_right2_2/separable_conv2d_bn_offset", "shape": [44], "dtype": "float32"}, {"name": "StatefulPartitionedCall/sequential/NASNet/separable_conv_2_normal_left1_1/separable_conv2d_weights", "shape": [1, 1, 44, 44], "dtype": "float32"}, {"name": "StatefulPartitionedCall/sequential/NASNet/separable_conv_1_normal_left2_11/separable_conv2d_bn_offset", "shape": [176], "dtype": "float32"}, {"name": "StatefulPartitionedCall/sequential/NASNet/separable_conv_2_normal_left1_1/separable_conv2d_bn_offset", "shape": [44], "dtype": "float32"}, {"name": "StatefulPartitionedCall/sequential/NASNet/separable_conv_2_normal_left5_1/separable_conv2d_weights", "shape": [1, 1, 44, 44], "dtype": "float32"}, {"name": "StatefulPartitionedCall/sequential/NASNet/separable_conv_2_normal_left5_1/separable_conv2d_bn_offset", "shape": [44], "dtype": "float32"}, {"name": "StatefulPartitionedCall/sequential/NASNet/adjust_conv_projection_3/Conv2D_weights", "shape": [1, 1, 264, 44], "dtype": "float32"}, {"name": "StatefulPartitionedCall/sequential/NASNet/adjust_conv_projection_3/Conv2D_bn_offset", "shape": [44], "dtype": "float32"}, {"name": "StatefulPartitionedCall/sequential/NASNet/normal_conv_1_2/Conv2D_weights", "shape": [1, 1, 264, 44], "dtype": "float32"}, {"name": "StatefulPartitionedCall/sequential/NASNet/normal_conv_1_2/Conv2D_bn_offset", "shape": [44], "dtype": "float32"}, {"name": "StatefulPartitionedCall/sequential/NASNet/separable_conv_1_normal_right1_3/separable_conv2d_weights", "shape": [1, 1, 44, 44], "dtype": "float32"}, {"name": "StatefulPartitionedCall/sequential/NASNet/separable_conv_1_normal_right2_11/separable_conv2d_weights", "shape": [1, 1, 176, 176], "dtype": "float32"}, {"name": "StatefulPartitionedCall/sequential/NASNet/separable_conv_1_normal_right1_3/separable_conv2d_bn_offset", "shape": [44], "dtype": "float32"}, {"name": "StatefulPartitionedCall/sequential/NASNet/separable_conv_1_normal_left2_3/separable_conv2d_weights", "shape": [1, 1, 44, 44], "dtype": "float32"}, {"name": "StatefulPartitionedCall/sequential/NASNet/separable_conv_1_normal_right2_11/separable_conv2d_bn_offset", "shape": [176], "dtype": "float32"}, {"name": "StatefulPartitionedCall/sequential/NASNet/separable_conv_1_normal_left2_3/separable_conv2d_bn_offset", "shape": [44], "dtype": "float32"}, {"name": "StatefulPartitionedCall/sequential/NASNet/separable_conv_1_normal_right2_3/separable_conv2d_weights", "shape": [1, 1, 44, 44], "dtype": "float32"}, {"name": "StatefulPartitionedCall/sequential/NASNet/separable_conv_1_normal_right2_3/separable_conv2d_bn_offset", "shape": [44], "dtype": "float32"}, {"name": "StatefulPartitionedCall/sequential/NASNet/separable_conv_1_normal_left1_2/separable_conv2d_weights", "shape": [1, 1, 44, 44], "dtype": "float32"}, {"name": "StatefulPartitionedCall/sequential/NASNet/separable_conv_1_normal_left1_10/separable_conv2d_weights", "shape": [1, 1, 176, 176], "dtype": "float32"}, {"name": "StatefulPartitionedCall/sequential/NASNet/separable_conv_1_normal_left1_2/separable_conv2d_bn_offset", "shape": [44], "dtype": "float32"}, {"name": "StatefulPartitionedCall/sequential/NASNet/separable_conv_1_normal_left5_2/separable_conv2d_weights", "shape": [1, 1, 44, 44], "dtype": "float32"}, {"name": "StatefulPartitionedCall/sequential/NASNet/separable_conv_1_normal_left1_10/separable_conv2d_bn_offset", "shape": [176], "dtype": "float32"}, {"name": "StatefulPartitionedCall/sequential/NASNet/separable_conv_1_normal_left5_2/separable_conv2d_bn_offset", "shape": [44], "dtype": "float32"}, {"name": "StatefulPartitionedCall/sequential/NASNet/adjust_bn_stem_2/FusedBatchNormV3/Scaled", "shape": [22], "dtype": "float32"}, {"name": "StatefulPartitionedCall/sequential/NASNet/separable_conv_2_normal_right1_3/separable_conv2d_weights", "shape": [1, 1, 44, 44], "dtype": "float32"}, {"name": "StatefulPartitionedCall/sequential/NASNet/separable_conv_2_normal_right1_3/separable_conv2d_bn_offset", "shape": [44], "dtype": "float32"}, {"name": "StatefulPartitionedCall/sequential/NASNet/separable_conv_2_normal_left2_3/separable_conv2d_weights", "shape": [1, 1, 44, 44], "dtype": "float32"}, {"name": "StatefulPartitionedCall/sequential/NASNet/separable_conv_2_normal_left2_3/separable_conv2d_bn_offset", "shape": [44], "dtype": "float32"}, {"name": "StatefulPartitionedCall/sequential/NASNet/separable_conv_2_normal_right2_3/separable_conv2d_weights", "shape": [1, 1, 44, 44], "dtype": "float32"}, {"name": "StatefulPartitionedCall/sequential/NASNet/separable_conv_1_normal_left5_10/separable_conv2d_weights", "shape": [1, 1, 176, 176], "dtype": "float32"}, {"name": "StatefulPartitionedCall/sequential/NASNet/separable_conv_2_normal_right2_3/separable_conv2d_bn_offset", "shape": [44], "dtype": "float32"}, {"name": "StatefulPartitionedCall/sequential/NASNet/separable_conv_2_normal_left1_2/separable_conv2d_weights", "shape": [1, 1, 44, 44], "dtype": "float32"}, {"name": "StatefulPartitionedCall/sequential/NASNet/separable_conv_2_normal_left1_2/separable_conv2d_bn_offset", "shape": [44], "dtype": "float32"}, {"name": "StatefulPartitionedCall/sequential/NASNet/separable_conv_2_normal_left5_2/separable_conv2d_weights", "shape": [1, 1, 44, 44], "dtype": "float32"}, {"name": "StatefulPartitionedCall/sequential/NASNet/separable_conv_1_normal_left5_10/separable_conv2d_bn_offset", "shape": [176], "dtype": "float32"}, {"name": "StatefulPartitionedCall/sequential/NASNet/separable_conv_2_normal_left5_2/separable_conv2d_bn_offset", "shape": [44], "dtype": "float32"}, {"name": "StatefulPartitionedCall/sequential/NASNet/adjust_conv_projection_reduce_4/Conv2D_weights", "shape": [1, 1, 264, 88], "dtype": "float32"}, {"name": "StatefulPartitionedCall/sequential/NASNet/adjust_conv_projection_reduce_4/Conv2D_bn_offset", "shape": [88], "dtype": "float32"}, {"name": "StatefulPartitionedCall/sequential/NASNet/normal_conv_1_3/Conv2D_weights", "shape": [1, 1, 264, 44], "dtype": "float32"}, {"name": "StatefulPartitionedCall/sequential/NASNet/normal_conv_1_3/Conv2D_bn_offset", "shape": [44], "dtype": "float32"}, {"name": "StatefulPartitionedCall/sequential/NASNet/separable_conv_1_normal_left1_3/separable_conv2d_weights", "shape": [1, 1, 44, 44], "dtype": "float32"}, {"name": "StatefulPartitionedCall/sequential/NASNet/separable_conv_1_normal_left1_3/separable_conv2d_bn_offset", "shape": [44], "dtype": "float32"}, {"name": "StatefulPartitionedCall/sequential/NASNet/separable_conv_2_normal_right1_11/separable_conv2d_weights", "shape": [1, 1, 176, 176], "dtype": "float32"}, {"name": "StatefulPartitionedCall/sequential/NASNet/separable_conv_1_normal_left5_3/separable_conv2d_weights", "shape": [1, 1, 44, 44], "dtype": "float32"}, {"name": "StatefulPartitionedCall/sequential/NASNet/separable_conv_1_normal_left5_3/separable_conv2d_bn_offset", "shape": [44], "dtype": "float32"}, {"name": "StatefulPartitionedCall/sequential/NASNet/separable_conv_2_normal_right1_11/separable_conv2d_bn_offset", "shape": [176], "dtype": "float32"}, {"name": "StatefulPartitionedCall/sequential/NASNet/separable_conv_1_reduction_right3_reduce_4/separable_conv2d_weights", "shape": [1, 1, 88, 88], "dtype": "float32"}, {"name": "StatefulPartitionedCall/sequential/NASNet/separable_conv_1_reduction_right3_reduce_4/separable_conv2d_bn_offset", "shape": [88], "dtype": "float32"}, {"name": "StatefulPartitionedCall/sequential/NASNet/separable_conv_2_normal_left2_11/separable_conv2d_weights", "shape": [1, 1, 176, 176], "dtype": "float32"}, {"name": "StatefulPartitionedCall/sequential/NASNet/separable_conv_1_reduction_right2_reduce_4/separable_conv2d_weights", "shape": [1, 1, 88, 88], "dtype": "float32"}, {"name": "StatefulPartitionedCall/sequential/NASNet/separable_conv_1_reduction_right2_reduce_4/separable_conv2d_bn_offset", "shape": [88], "dtype": "float32"}, {"name": "StatefulPartitionedCall/sequential/NASNet/separable_conv_2_normal_left2_11/separable_conv2d_bn_offset", "shape": [176], "dtype": "float32"}, {"name": "StatefulPartitionedCall/sequential/NASNet/separable_conv_1_reduction_right1_reduce_4/separable_conv2d_weights", "shape": [1, 1, 88, 88], "dtype": "float32"}, {"name": "StatefulPartitionedCall/sequential/NASNet/separable_conv_1_reduction_right1_reduce_4/separable_conv2d_bn_offset", "shape": [88], "dtype": "float32"}, {"name": "StatefulPartitionedCall/sequential/NASNet/separable_conv_2_normal_right2_11/separable_conv2d_weights", "shape": [1, 1, 176, 176], "dtype": "float32"}, {"name": "StatefulPartitionedCall/sequential/NASNet/separable_conv_2_normal_left1_3/separable_conv2d_weights", "shape": [1, 1, 44, 44], "dtype": "float32"}, {"name": "StatefulPartitionedCall/sequential/NASNet/adjust_bn_stem_2/FusedBatchNormV3/Offset", "shape": [22], "dtype": "float32"}, {"name": "StatefulPartitionedCall/sequential/NASNet/separable_conv_2_normal_left1_3/separable_conv2d_bn_offset", "shape": [44], "dtype": "float32"}, {"name": "StatefulPartitionedCall/sequential/NASNet/separable_conv_2_normal_left5_3/separable_conv2d_weights", "shape": [1, 1, 44, 44], "dtype": "float32"}, {"name": "StatefulPartitionedCall/sequential/NASNet/separable_conv_2_normal_right2_11/separable_conv2d_bn_offset", "shape": [176], "dtype": "float32"}, {"name": "StatefulPartitionedCall/sequential/NASNet/separable_conv_2_normal_left5_3/separable_conv2d_bn_offset", "shape": [44], "dtype": "float32"}, {"name": "StatefulPartitionedCall/sequential/NASNet/separable_conv_2_reduction_right3_reduce_4/separable_conv2d_weights", "shape": [1, 1, 88, 88], "dtype": "float32"}, {"name": "StatefulPartitionedCall/sequential/NASNet/separable_conv_2_reduction_right3_reduce_4/separable_conv2d_bn_offset", "shape": [88], "dtype": "float32"}, {"name": "StatefulPartitionedCall/sequential/NASNet/separable_conv_2_reduction_right2_reduce_4/separable_conv2d_weights", "shape": [1, 1, 88, 88], "dtype": "float32"}, {"name": "StatefulPartitionedCall/sequential/NASNet/separable_conv_2_reduction_right2_reduce_4/separable_conv2d_bn_offset", "shape": [88], "dtype": "float32"}, {"name": "StatefulPartitionedCall/sequential/NASNet/separable_conv_2_reduction_right1_reduce_4/separable_conv2d_weights", "shape": [1, 1, 88, 88], "dtype": "float32"}, {"name": "StatefulPartitionedCall/sequential/NASNet/separable_conv_2_normal_left1_10/separable_conv2d_weights", "shape": [1, 1, 176, 176], "dtype": "float32"}, {"name": "StatefulPartitionedCall/sequential/NASNet/separable_conv_2_reduction_right1_reduce_4/separable_conv2d_bn_offset", "shape": [88], "dtype": "float32"}, {"name": "StatefulPartitionedCall/sequential/NASNet/reduction_conv_1_reduce_4/Conv2D_weights", "shape": [1, 1, 264, 88], "dtype": "float32"}, {"name": "StatefulPartitionedCall/sequential/NASNet/reduction_conv_1_reduce_4/Conv2D_bn_offset", "shape": [88], "dtype": "float32"}, {"name": "StatefulPartitionedCall/sequential/NASNet/separable_conv_1_reduction_left1_reduce_4/separable_conv2d_weights", "shape": [1, 1, 88, 88], "dtype": "float32"}, {"name": "StatefulPartitionedCall/sequential/NASNet/separable_conv_2_normal_left1_10/separable_conv2d_bn_offset", "shape": [176], "dtype": "float32"}, {"name": "StatefulPartitionedCall/sequential/NASNet/separable_conv_1_reduction_left1_reduce_4/separable_conv2d_bn_offset", "shape": [88], "dtype": "float32"}, {"name": "StatefulPartitionedCall/sequential/NASNet/separable_conv_1_normal_right1_5/separable_conv2d_weights", "shape": [1, 1, 88, 88], "dtype": "float32"}, {"name": "StatefulPartitionedCall/sequential/NASNet/separable_conv_1_normal_right1_5/separable_conv2d_bn_offset", "shape": [88], "dtype": "float32"}, {"name": "StatefulPartitionedCall/sequential/NASNet/separable_conv_2_normal_left5_10/separable_conv2d_weights", "shape": [1, 1, 176, 176], "dtype": "float32"}, {"name": "StatefulPartitionedCall/sequential/NASNet/separable_conv_1_normal_left2_5/separable_conv2d_weights", "shape": [1, 1, 88, 88], "dtype": "float32"}, {"name": "StatefulPartitionedCall/sequential/NASNet/separable_conv_1_normal_left2_5/separable_conv2d_bn_offset", "shape": [88], "dtype": "float32"}, {"name": "StatefulPartitionedCall/sequential/NASNet/separable_conv_2_normal_left5_10/separable_conv2d_bn_offset", "shape": [176], "dtype": "float32"}, {"name": "StatefulPartitionedCall/sequential/NASNet/separable_conv_1_normal_right2_5/separable_conv2d_weights", "shape": [1, 1, 88, 88], "dtype": "float32"}, {"name": "StatefulPartitionedCall/sequential/NASNet/separable_conv_1_normal_right2_5/separable_conv2d_bn_offset", "shape": [88], "dtype": "float32"}, {"name": "StatefulPartitionedCall/sequential/NASNet/separable_conv_2_reduction_left1_reduce_4/separable_conv2d_weights", "shape": [1, 1, 88, 88], "dtype": "float32"}, {"name": "StatefulPartitionedCall/sequential/NASNet/separable_conv_2_reduction_left1_reduce_4/separable_conv2d_bn_offset", "shape": [88], "dtype": "float32"}, {"name": "StatefulPartitionedCall/sequential/NASNet/separable_conv_2_normal_right1_5/separable_conv2d_weights", "shape": [1, 1, 88, 88], "dtype": "float32"}, {"name": "StatefulPartitionedCall/sequential/NASNet/separable_conv_2_normal_right1_5/separable_conv2d_bn_offset", "shape": [88], "dtype": "float32"}, {"name": "StatefulPartitionedCall/sequential/NASNet/separable_conv_2_normal_left2_5/separable_conv2d_weights", "shape": [1, 1, 88, 88], "dtype": "float32"}, {"name": "StatefulPartitionedCall/sequential/NASNet/separable_conv_2_normal_left2_5/separable_conv2d_bn_offset", "shape": [88], "dtype": "float32"}, {"name": "StatefulPartitionedCall/sequential/NASNet/separable_conv_2_normal_right2_5/separable_conv2d_weights", "shape": [1, 1, 88, 88], "dtype": "float32"}, {"name": "StatefulPartitionedCall/sequential/NASNet/adjust_conv_projection_12/Conv2D_weights", "shape": [1, 1, 1056, 176], "dtype": "float32"}, {"name": "StatefulPartitionedCall/sequential/NASNet/separable_conv_2_normal_right2_5/separable_conv2d_bn_offset", "shape": [88], "dtype": "float32"}, {"name": "StatefulPartitionedCall/sequential/NASNet/separable_conv_1_reduction_left4_reduce_4/separable_conv2d_weights", "shape": [1, 1, 88, 88], "dtype": "float32"}, {"name": "StatefulPartitionedCall/sequential/NASNet/separable_conv_1_reduction_left4_reduce_4/separable_conv2d_bn_offset", "shape": [88], "dtype": "float32"}, {"name": "StatefulPartitionedCall/sequential/NASNet/adjust_conv_projection_12/Conv2D_bn_offset", "shape": [176], "dtype": "float32"}, {"name": "StatefulPartitionedCall/sequential/NASNet/separable_conv_2_reduction_left4_reduce_4/separable_conv2d_weights", "shape": [1, 1, 88, 88], "dtype": "float32"}, {"name": "StatefulPartitionedCall/sequential/NASNet/separable_conv_2_reduction_left4_reduce_4/separable_conv2d_bn_offset", "shape": [88], "dtype": "float32"}, {"name": "StatefulPartitionedCall/sequential/NASNet/adjust_conv_projection_6/Conv2D_weights", "shape": [1, 1, 352, 88], "dtype": "float32"}, {"name": "StatefulPartitionedCall/sequential/NASNet/adjust_conv_projection_6/Conv2D_bn_offset", "shape": [88], "dtype": "float32"}, {"name": "StatefulPartitionedCall/sequential/NASNet/normal_conv_1_5/Conv2D_weights", "shape": [1, 1, 352, 88], "dtype": "float32"}, {"name": "StatefulPartitionedCall/sequential/NASNet/normal_conv_1_5/Conv2D_bn_offset", "shape": [88], "dtype": "float32"}, {"name": "StatefulPartitionedCall/sequential/NASNet/separable_conv_1_normal_right1_6/separable_conv2d_weights", "shape": [1, 1, 88, 88], "dtype": "float32"}, {"name": "StatefulPartitionedCall/sequential/NASNet/separable_conv_1_normal_right1_6/separable_conv2d_bn_offset", "shape": [88], "dtype": "float32"}, {"name": "StatefulPartitionedCall/sequential/NASNet/separable_conv_1_normal_left2_6/separable_conv2d_weights", "shape": [1, 1, 88, 88], "dtype": "float32"}, {"name": "StatefulPartitionedCall/sequential/NASNet/separable_conv_1_normal_left2_6/separable_conv2d_bn_offset", "shape": [88], "dtype": "float32"}, {"name": "StatefulPartitionedCall/sequential/NASNet/separable_conv_1_normal_right2_6/separable_conv2d_weights", "shape": [1, 1, 88, 88], "dtype": "float32"}, {"name": "StatefulPartitionedCall/sequential/NASNet/separable_conv_1_normal_right2_6/separable_conv2d_bn_offset", "shape": [88], "dtype": "float32"}, {"name": "StatefulPartitionedCall/sequential/NASNet/separable_conv_1_normal_left1_5/separable_conv2d_weights", "shape": [1, 1, 88, 88], "dtype": "float32"}, {"name": "StatefulPartitionedCall/sequential/NASNet/separable_conv_1_normal_left1_5/separable_conv2d_bn_offset", "shape": [88], "dtype": "float32"}, {"name": "StatefulPartitionedCall/sequential/NASNet/normal_conv_1_11/Conv2D_weights", "shape": [1, 1, 1056, 176], "dtype": "float32"}, {"name": "StatefulPartitionedCall/sequential/NASNet/separable_conv_1_normal_left5_5/separable_conv2d_weights", "shape": [1, 1, 88, 88], "dtype": "float32"}, {"name": "StatefulPartitionedCall/sequential/NASNet/separable_conv_1_normal_left5_5/separable_conv2d_bn_offset", "shape": [88], "dtype": "float32"}, {"name": "StatefulPartitionedCall/sequential/NASNet/normal_conv_1_11/Conv2D_bn_offset", "shape": [176], "dtype": "float32"}, {"name": "StatefulPartitionedCall/sequential/NASNet/separable_conv_2_normal_right1_6/separable_conv2d_weights", "shape": [1, 1, 88, 88], "dtype": "float32"}, {"name": "StatefulPartitionedCall/sequential/NASNet/separable_conv_2_normal_right1_6/separable_conv2d_bn_offset", "shape": [88], "dtype": "float32"}, {"name": "StatefulPartitionedCall/sequential/NASNet/separable_conv_2_normal_left2_6/separable_conv2d_weights", "shape": [1, 1, 88, 88], "dtype": "float32"}, {"name": "StatefulPartitionedCall/sequential/NASNet/separable_conv_2_normal_left2_6/separable_conv2d_bn_offset", "shape": [88], "dtype": "float32"}, {"name": "StatefulPartitionedCall/sequential/NASNet/separable_conv_2_normal_right2_6/separable_conv2d_weights", "shape": [1, 1, 88, 88], "dtype": "float32"}, {"name": "StatefulPartitionedCall/sequential/NASNet/separable_conv_2_normal_right2_6/separable_conv2d_bn_offset", "shape": [88], "dtype": "float32"}, {"name": "StatefulPartitionedCall/sequential/NASNet/separable_conv_2_normal_left1_5/separable_conv2d_weights", "shape": [1, 1, 88, 88], "dtype": "float32"}, {"name": "StatefulPartitionedCall/sequential/NASNet/separable_conv_2_normal_left1_5/separable_conv2d_bn_offset", "shape": [88], "dtype": "float32"}, {"name": "StatefulPartitionedCall/sequential/NASNet/separable_conv_2_normal_left5_5/separable_conv2d_weights", "shape": [1, 1, 88, 88], "dtype": "float32"}, {"name": "StatefulPartitionedCall/sequential/NASNet/separable_conv_2_normal_left5_5/separable_conv2d_bn_offset", "shape": [88], "dtype": "float32"}, {"name": "StatefulPartitionedCall/sequential/NASNet/adjust_conv_projection_7/Conv2D_weights", "shape": [1, 1, 528, 88], "dtype": "float32"}, {"name": "StatefulPartitionedCall/sequential/NASNet/adjust_conv_projection_7/Conv2D_bn_offset", "shape": [88], "dtype": "float32"}, {"name": "StatefulPartitionedCall/sequential/NASNet/normal_conv_1_6/Conv2D_weights", "shape": [1, 1, 528, 88], "dtype": "float32"}, {"name": "StatefulPartitionedCall/sequential/NASNet/normal_conv_1_6/Conv2D_bn_offset", "shape": [88], "dtype": "float32"}, {"name": "StatefulPartitionedCall/sequential/NASNet/separable_conv_1_normal_right1_7/separable_conv2d_weights", "shape": [1, 1, 88, 88], "dtype": "float32"}, {"name": "StatefulPartitionedCall/sequential/NASNet/separable_conv_1_normal_right1_12/separable_conv2d_weights", "shape": [1, 1, 176, 176], "dtype": "float32"}, {"name": "StatefulPartitionedCall/sequential/NASNet/separable_conv_1_normal_right1_7/separable_conv2d_bn_offset", "shape": [88], "dtype": "float32"}, {"name": "StatefulPartitionedCall/sequential/NASNet/separable_conv_1_normal_left2_7/separable_conv2d_weights", "shape": [1, 1, 88, 88], "dtype": "float32"}, {"name": "StatefulPartitionedCall/sequential/NASNet/separable_conv_1_normal_right1_12/separable_conv2d_bn_offset", "shape": [176], "dtype": "float32"}, {"name": "StatefulPartitionedCall/sequential/NASNet/separable_conv_1_normal_left2_7/separable_conv2d_bn_offset", "shape": [88], "dtype": "float32"}, {"name": "StatefulPartitionedCall/sequential/NASNet/separable_conv_1_normal_right2_7/separable_conv2d_weights", "shape": [1, 1, 88, 88], "dtype": "float32"}, {"name": "StatefulPartitionedCall/sequential/NASNet/separable_conv_1_normal_right2_7/separable_conv2d_bn_offset", "shape": [88], "dtype": "float32"}, {"name": "StatefulPartitionedCall/sequential/NASNet/separable_conv_1_normal_left1_6/separable_conv2d_weights", "shape": [1, 1, 88, 88], "dtype": "float32"}, {"name": "StatefulPartitionedCall/sequential/NASNet/separable_conv_1_normal_left2_12/separable_conv2d_weights", "shape": [1, 1, 176, 176], "dtype": "float32"}, {"name": "StatefulPartitionedCall/sequential/NASNet/separable_conv_1_normal_left1_6/separable_conv2d_bn_offset", "shape": [88], "dtype": "float32"}, {"name": "StatefulPartitionedCall/sequential/NASNet/adjust_bn_9/FusedBatchNormV3/Scaled", "shape": [176], "dtype": "float32"}, {"name": "StatefulPartitionedCall/sequential/NASNet/separable_conv_1_normal_left5_6/separable_conv2d_weights", "shape": [1, 1, 88, 88], "dtype": "float32"}, {"name": "StatefulPartitionedCall/sequential/NASNet/separable_conv_1_normal_left2_12/separable_conv2d_bn_offset", "shape": [176], "dtype": "float32"}, {"name": "StatefulPartitionedCall/sequential/NASNet/separable_conv_1_normal_left5_6/separable_conv2d_bn_offset", "shape": [88], "dtype": "float32"}, {"name": "StatefulPartitionedCall/sequential/NASNet/separable_conv_2_normal_right1_7/separable_conv2d_weights", "shape": [1, 1, 88, 88], "dtype": "float32"}, {"name": "StatefulPartitionedCall/sequential/NASNet/separable_conv_2_normal_right1_7/separable_conv2d_bn_offset", "shape": [88], "dtype": "float32"}, {"name": "StatefulPartitionedCall/sequential/NASNet/separable_conv_2_normal_left2_7/separable_conv2d_weights", "shape": [1, 1, 88, 88], "dtype": "float32"}, {"name": "StatefulPartitionedCall/sequential/NASNet/separable_conv_2_normal_left2_7/separable_conv2d_bn_offset", "shape": [88], "dtype": "float32"}, {"name": "StatefulPartitionedCall/sequential/NASNet/separable_conv_2_normal_right2_7/separable_conv2d_weights", "shape": [1, 1, 88, 88], "dtype": "float32"}, {"name": "StatefulPartitionedCall/sequential/NASNet/separable_conv_1_normal_right2_12/separable_conv2d_weights", "shape": [1, 1, 176, 176], "dtype": "float32"}, {"name": "StatefulPartitionedCall/sequential/NASNet/separable_conv_2_normal_right2_7/separable_conv2d_bn_offset", "shape": [88], "dtype": "float32"}, {"name": "StatefulPartitionedCall/sequential/NASNet/separable_conv_2_normal_left1_6/separable_conv2d_weights", "shape": [1, 1, 88, 88], "dtype": "float32"}, {"name": "StatefulPartitionedCall/sequential/NASNet/separable_conv_2_normal_left1_6/separable_conv2d_bn_offset", "shape": [88], "dtype": "float32"}, {"name": "StatefulPartitionedCall/sequential/NASNet/separable_conv_2_normal_left5_6/separable_conv2d_weights", "shape": [1, 1, 88, 88], "dtype": "float32"}, {"name": "StatefulPartitionedCall/sequential/NASNet/separable_conv_1_normal_right2_12/separable_conv2d_bn_offset", "shape": [176], "dtype": "float32"}, {"name": "StatefulPartitionedCall/sequential/NASNet/separable_conv_2_normal_left5_6/separable_conv2d_bn_offset", "shape": [88], "dtype": "float32"}, {"name": "StatefulPartitionedCall/sequential/NASNet/adjust_conv_projection_8/Conv2D_weights", "shape": [1, 1, 528, 88], "dtype": "float32"}, {"name": "StatefulPartitionedCall/sequential/NASNet/adjust_bn_9/FusedBatchNormV3/Offset", "shape": [176], "dtype": "float32"}, {"name": "StatefulPartitionedCall/sequential/NASNet/adjust_conv_projection_8/Conv2D_bn_offset", "shape": [88], "dtype": "float32"}, {"name": "StatefulPartitionedCall/sequential/NASNet/normal_conv_1_7/Conv2D_weights", "shape": [1, 1, 528, 88], "dtype": "float32"}, {"name": "StatefulPartitionedCall/sequential/NASNet/normal_conv_1_7/Conv2D_bn_offset", "shape": [88], "dtype": "float32"}, {"name": "StatefulPartitionedCall/sequential/NASNet/separable_conv_1_normal_right1_8/separable_conv2d_weights", "shape": [1, 1, 88, 88], "dtype": "float32"}, {"name": "StatefulPartitionedCall/sequential/NASNet/separable_conv_1_normal_right1_8/separable_conv2d_bn_offset", "shape": [88], "dtype": "float32"}, {"name": "StatefulPartitionedCall/sequential/NASNet/separable_conv_1_normal_left1_11/separable_conv2d_weights", "shape": [1, 1, 176, 176], "dtype": "float32"}, {"name": "StatefulPartitionedCall/sequential/NASNet/separable_conv_1_normal_left2_8/separable_conv2d_weights", "shape": [1, 1, 88, 88], "dtype": "float32"}, {"name": "StatefulPartitionedCall/sequential/NASNet/separable_conv_1_normal_left2_8/separable_conv2d_bn_offset", "shape": [88], "dtype": "float32"}, {"name": "StatefulPartitionedCall/sequential/NASNet/separable_conv_1_normal_left1_11/separable_conv2d_bn_offset", "shape": [176], "dtype": "float32"}, {"name": "StatefulPartitionedCall/sequential/NASNet/separable_conv_1_normal_right2_8/separable_conv2d_weights", "shape": [1, 1, 88, 88], "dtype": "float32"}, {"name": "StatefulPartitionedCall/sequential/NASNet/separable_conv_1_normal_right2_8/separable_conv2d_bn_offset", "shape": [88], "dtype": "float32"}, {"name": "StatefulPartitionedCall/sequential/NASNet/separable_conv_1_normal_left1_7/separable_conv2d_weights", "shape": [1, 1, 88, 88], "dtype": "float32"}, {"name": "StatefulPartitionedCall/sequential/NASNet/separable_conv_1_normal_left1_7/separable_conv2d_bn_offset", "shape": [88], "dtype": "float32"}, {"name": "StatefulPartitionedCall/sequential/NASNet/separable_conv_1_normal_left5_11/separable_conv2d_weights", "shape": [1, 1, 176, 176], "dtype": "float32"}, {"name": "StatefulPartitionedCall/sequential/NASNet/separable_conv_1_normal_left5_7/separable_conv2d_weights", "shape": [1, 1, 88, 88], "dtype": "float32"}, {"name": "StatefulPartitionedCall/sequential/NASNet/separable_conv_1_normal_left5_7/separable_conv2d_bn_offset", "shape": [88], "dtype": "float32"}, {"name": "StatefulPartitionedCall/sequential/NASNet/separable_conv_1_normal_left5_11/separable_conv2d_bn_offset", "shape": [176], "dtype": "float32"}, {"name": "StatefulPartitionedCall/sequential/NASNet/separable_conv_2_normal_right1_8/separable_conv2d_weights", "shape": [1, 1, 88, 88], "dtype": "float32"}, {"name": "StatefulPartitionedCall/sequential/NASNet/adjust_bn_5/FusedBatchNormV3/Scaled", "shape": [88], "dtype": "float32"}, {"name": "StatefulPartitionedCall/sequential/NASNet/separable_conv_2_normal_right1_8/separable_conv2d_bn_offset", "shape": [88], "dtype": "float32"}, {"name": "StatefulPartitionedCall/sequential/NASNet/separable_conv_2_normal_left2_8/separable_conv2d_weights", "shape": [1, 1, 88, 88], "dtype": "float32"}, {"name": "StatefulPartitionedCall/sequential/NASNet/separable_conv_2_normal_left2_8/separable_conv2d_bn_offset", "shape": [88], "dtype": "float32"}, {"name": "StatefulPartitionedCall/sequential/NASNet/separable_conv_2_normal_right2_8/separable_conv2d_weights", "shape": [1, 1, 88, 88], "dtype": "float32"}, {"name": "StatefulPartitionedCall/sequential/NASNet/separable_conv_2_normal_right2_8/separable_conv2d_bn_offset", "shape": [88], "dtype": "float32"}, {"name": "StatefulPartitionedCall/sequential/NASNet/separable_conv_2_normal_left1_7/separable_conv2d_weights", "shape": [1, 1, 88, 88], "dtype": "float32"}, {"name": "StatefulPartitionedCall/sequential/NASNet/separable_conv_2_normal_right1_12/separable_conv2d_weights", "shape": [1, 1, 176, 176], "dtype": "float32"}, {"name": "StatefulPartitionedCall/sequential/NASNet/separable_conv_2_normal_left1_7/separable_conv2d_bn_offset", "shape": [88], "dtype": "float32"}, {"name": "StatefulPartitionedCall/sequential/NASNet/separable_conv_2_normal_left5_7/separable_conv2d_weights", "shape": [1, 1, 88, 88], "dtype": "float32"}, {"name": "StatefulPartitionedCall/sequential/NASNet/separable_conv_2_normal_left5_7/separable_conv2d_bn_offset", "shape": [88], "dtype": "float32"}, {"name": "StatefulPartitionedCall/sequential/NASNet/adjust_conv_projection_reduce_8/Conv2D_weights", "shape": [1, 1, 528, 176], "dtype": "float32"}, {"name": "StatefulPartitionedCall/sequential/NASNet/separable_conv_2_normal_right1_12/separable_conv2d_bn_offset", "shape": [176], "dtype": "float32"}, {"name": "StatefulPartitionedCall/sequential/NASNet/adjust_conv_projection_reduce_8/Conv2D_bn_offset", "shape": [176], "dtype": "float32"}, {"name": "StatefulPartitionedCall/sequential/NASNet/normal_conv_1_8/Conv2D_weights", "shape": [1, 1, 528, 88], "dtype": "float32"}, {"name": "StatefulPartitionedCall/sequential/NASNet/normal_conv_1_8/Conv2D_bn_offset", "shape": [88], "dtype": "float32"}, {"name": "StatefulPartitionedCall/sequential/NASNet/separable_conv_1_normal_left1_8/separable_conv2d_weights", "shape": [1, 1, 88, 88], "dtype": "float32"}, {"name": "StatefulPartitionedCall/sequential/NASNet/separable_conv_2_normal_left2_12/separable_conv2d_weights", "shape": [1, 1, 176, 176], "dtype": "float32"}, {"name": "StatefulPartitionedCall/sequential/NASNet/separable_conv_1_normal_left1_8/separable_conv2d_bn_offset", "shape": [88], "dtype": "float32"}, {"name": "StatefulPartitionedCall/sequential/NASNet/separable_conv_1_normal_left5_8/separable_conv2d_weights", "shape": [1, 1, 88, 88], "dtype": "float32"}, {"name": "StatefulPartitionedCall/sequential/NASNet/separable_conv_2_normal_left2_12/separable_conv2d_bn_offset", "shape": [176], "dtype": "float32"}, {"name": "StatefulPartitionedCall/sequential/NASNet/separable_conv_1_normal_left5_8/separable_conv2d_bn_offset", "shape": [88], "dtype": "float32"}, {"name": "StatefulPartitionedCall/sequential/NASNet/separable_conv_1_reduction_right3_reduce_8/separable_conv2d_weights", "shape": [1, 1, 176, 176], "dtype": "float32"}, {"name": "StatefulPartitionedCall/sequential/NASNet/separable_conv_2_normal_right2_12/separable_conv2d_weights", "shape": [1, 1, 176, 176], "dtype": "float32"}, {"name": "StatefulPartitionedCall/sequential/NASNet/separable_conv_1_reduction_right3_reduce_8/separable_conv2d_bn_offset", "shape": [176], "dtype": "float32"}, {"name": "StatefulPartitionedCall/sequential/NASNet/adjust_bn_5/FusedBatchNormV3/Offset", "shape": [88], "dtype": "float32"}, {"name": "StatefulPartitionedCall/sequential/NASNet/separable_conv_1_reduction_right2_reduce_8/separable_conv2d_weights", "shape": [1, 1, 176, 176], "dtype": "float32"}, {"name": "StatefulPartitionedCall/sequential/NASNet/separable_conv_2_normal_right2_12/separable_conv2d_bn_offset", "shape": [176], "dtype": "float32"}, {"name": "StatefulPartitionedCall/sequential/NASNet/separable_conv_1_reduction_right2_reduce_8/separable_conv2d_bn_offset", "shape": [176], "dtype": "float32"}, {"name": "StatefulPartitionedCall/sequential/NASNet/separable_conv_1_reduction_right1_reduce_8/separable_conv2d_weights", "shape": [1, 1, 176, 176], "dtype": "float32"}, {"name": "StatefulPartitionedCall/sequential/NASNet/separable_conv_1_reduction_right1_reduce_8/separable_conv2d_bn_offset", "shape": [176], "dtype": "float32"}, {"name": "StatefulPartitionedCall/sequential/NASNet/separable_conv_2_normal_left1_11/separable_conv2d_weights", "shape": [1, 1, 176, 176], "dtype": "float32"}, {"name": "StatefulPartitionedCall/sequential/NASNet/separable_conv_2_normal_left1_8/separable_conv2d_weights", "shape": [1, 1, 88, 88], "dtype": "float32"}, {"name": "StatefulPartitionedCall/sequential/NASNet/separable_conv_2_normal_left1_8/separable_conv2d_bn_offset", "shape": [88], "dtype": "float32"}, {"name": "StatefulPartitionedCall/sequential/NASNet/separable_conv_2_normal_left5_8/separable_conv2d_weights", "shape": [1, 1, 88, 88], "dtype": "float32"}, {"name": "StatefulPartitionedCall/sequential/NASNet/separable_conv_2_normal_left1_11/separable_conv2d_bn_offset", "shape": [176], "dtype": "float32"}, {"name": "StatefulPartitionedCall/sequential/NASNet/separable_conv_2_normal_left5_8/separable_conv2d_bn_offset", "shape": [88], "dtype": "float32"}, {"name": "StatefulPartitionedCall/sequential/NASNet/separable_conv_2_reduction_right3_reduce_8/separable_conv2d_weights", "shape": [1, 1, 176, 176], "dtype": "float32"}, {"name": "StatefulPartitionedCall/sequential/NASNet/separable_conv_2_reduction_right3_reduce_8/separable_conv2d_bn_offset", "shape": [176], "dtype": "float32"}, {"name": "StatefulPartitionedCall/sequential/NASNet/separable_conv_2_reduction_right2_reduce_8/separable_conv2d_weights", "shape": [1, 1, 176, 176], "dtype": "float32"}, {"name": "StatefulPartitionedCall/sequential/NASNet/separable_conv_2_reduction_right2_reduce_8/separable_conv2d_bn_offset", "shape": [176], "dtype": "float32"}, {"name": "StatefulPartitionedCall/sequential/NASNet/separable_conv_2_reduction_right1_reduce_8/separable_conv2d_weights", "shape": [1, 1, 176, 176], "dtype": "float32"}, {"name": "StatefulPartitionedCall/sequential/NASNet/separable_conv_2_normal_left5_11/separable_conv2d_weights", "shape": [1, 1, 176, 176], "dtype": "float32"}, {"name": "StatefulPartitionedCall/sequential/NASNet/separable_conv_2_reduction_right1_reduce_8/separable_conv2d_bn_offset", "shape": [176], "dtype": "float32"}, {"name": "StatefulPartitionedCall/sequential/NASNet/reduction_conv_1_reduce_8/Conv2D_weights", "shape": [1, 1, 528, 176], "dtype": "float32"}, {"name": "StatefulPartitionedCall/sequential/NASNet/reduction_conv_1_reduce_8/Conv2D_bn_offset", "shape": [176], "dtype": "float32"}, {"name": "StatefulPartitionedCall/sequential/NASNet/separable_conv_1_reduction_left1_reduce_8/separable_conv2d_weights", "shape": [1, 1, 176, 176], "dtype": "float32"}, {"name": "StatefulPartitionedCall/sequential/NASNet/separable_conv_2_normal_left5_11/separable_conv2d_bn_offset", "shape": [176], "dtype": "float32"}, {"name": "StatefulPartitionedCall/sequential/NASNet/separable_conv_1_reduction_left1_reduce_8/separable_conv2d_bn_offset", "shape": [176], "dtype": "float32"}, {"name": "StatefulPartitionedCall/sequential/NASNet/separable_conv_1_normal_right1_9/separable_conv2d_weights", "shape": [1, 1, 176, 176], "dtype": "float32"}, {"name": "StatefulPartitionedCall/sequential/NASNet/separable_conv_1_normal_right1_9/separable_conv2d_bn_offset", "shape": [176], "dtype": "float32"}, {"name": "StatefulPartitionedCall/sequential/NASNet/separable_conv_1_normal_left2_9/separable_conv2d_weights", "shape": [1, 1, 176, 176], "dtype": "float32"}, {"name": "StatefulPartitionedCall/sequential/NASNet/separable_conv_1_normal_left2_9/separable_conv2d_bn_offset", "shape": [176], "dtype": "float32"}, {"name": "StatefulPartitionedCall/sequential/NASNet/normal_conv_1_12/Conv2D_weights", "shape": [1, 1, 1056, 176], "dtype": "float32"}, {"name": "StatefulPartitionedCall/sequential/NASNet/separable_conv_1_normal_right2_9/separable_conv2d_weights", "shape": [1, 1, 176, 176], "dtype": "float32"}, {"name": "StatefulPartitionedCall/sequential/NASNet/separable_conv_1_normal_right2_9/separable_conv2d_bn_offset", "shape": [176], "dtype": "float32"}, {"name": "StatefulPartitionedCall/sequential/NASNet/normal_conv_1_12/Conv2D_bn_offset", "shape": [176], "dtype": "float32"}, {"name": "StatefulPartitionedCall/sequential/NASNet/separable_conv_2_reduction_left1_reduce_8/separable_conv2d_weights", "shape": [1, 1, 176, 176], "dtype": "float32"}, {"name": "StatefulPartitionedCall/sequential/NASNet/separable_conv_2_reduction_left1_reduce_8/separable_conv2d_bn_offset", "shape": [176], "dtype": "float32"}, {"name": "StatefulPartitionedCall/sequential/NASNet/separable_conv_2_normal_right1_9/separable_conv2d_weights", "shape": [1, 1, 176, 176], "dtype": "float32"}, {"name": "StatefulPartitionedCall/sequential/NASNet/separable_conv_2_normal_right1_9/separable_conv2d_bn_offset", "shape": [176], "dtype": "float32"}, {"name": "StatefulPartitionedCall/sequential/NASNet/separable_conv_2_normal_left2_9/separable_conv2d_weights", "shape": [1, 1, 176, 176], "dtype": "float32"}, {"name": "StatefulPartitionedCall/sequential/NASNet/separable_conv_2_normal_left2_9/separable_conv2d_bn_offset", "shape": [176], "dtype": "float32"}, {"name": "StatefulPartitionedCall/sequential/NASNet/separable_conv_2_normal_right2_9/separable_conv2d_weights", "shape": [1, 1, 176, 176], "dtype": "float32"}, {"name": "StatefulPartitionedCall/sequential/NASNet/separable_conv_2_normal_right2_9/separable_conv2d_bn_offset", "shape": [176], "dtype": "float32"}, {"name": "StatefulPartitionedCall/sequential/NASNet/separable_conv_1_reduction_left4_reduce_8/separable_conv2d_weights", "shape": [1, 1, 176, 176], "dtype": "float32"}, {"name": "StatefulPartitionedCall/sequential/NASNet/separable_conv_1_reduction_left4_reduce_8/separable_conv2d_bn_offset", "shape": [176], "dtype": "float32"}, {"name": "StatefulPartitionedCall/sequential/NASNet/separable_conv_2_reduction_left4_reduce_8/separable_conv2d_weights", "shape": [1, 1, 176, 176], "dtype": "float32"}, {"name": "StatefulPartitionedCall/sequential/NASNet/separable_conv_2_reduction_left4_reduce_8/separable_conv2d_bn_offset", "shape": [176], "dtype": "float32"}, {"name": "StatefulPartitionedCall/sequential/NASNet/adjust_conv_projection_10/Conv2D_weights", "shape": [1, 1, 704, 176], "dtype": "float32"}, {"name": "StatefulPartitionedCall/sequential/NASNet/separable_conv_1_normal_left1_12/separable_conv2d_weights", "shape": [1, 1, 176, 176], "dtype": "float32"}, {"name": "StatefulPartitionedCall/sequential/NASNet/adjust_conv_projection_10/Conv2D_bn_offset", "shape": [176], "dtype": "float32"}, {"name": "StatefulPartitionedCall/sequential/NASNet/normal_conv_1_9/Conv2D_weights", "shape": [1, 1, 704, 176], "dtype": "float32"}, {"name": "StatefulPartitionedCall/sequential/NASNet/adjust_bn_0/FusedBatchNormV3/Scaled", "shape": [44], "dtype": "float32"}, {"name": "StatefulPartitionedCall/sequential/NASNet/normal_conv_1_9/Conv2D_bn_offset", "shape": [176], "dtype": "float32"}, {"name": "StatefulPartitionedCall/sequential/NASNet/separable_conv_1_normal_right1_10/separable_conv2d_weights", "shape": [1, 1, 176, 176], "dtype": "float32"}, {"name": "StatefulPartitionedCall/sequential/NASNet/separable_conv_1_normal_left1_12/separable_conv2d_bn_offset", "shape": [176], "dtype": "float32"}, {"name": "StatefulPartitionedCall/sequential/NASNet/separable_conv_1_normal_right1_10/separable_conv2d_bn_offset", "shape": [176], "dtype": "float32"}, {"name": "StatefulPartitionedCall/sequential/NASNet/separable_conv_1_normal_left2_10/separable_conv2d_weights", "shape": [1, 1, 176, 176], "dtype": "float32"}, {"name": "StatefulPartitionedCall/sequential/NASNet/separable_conv_1_normal_left2_10/separable_conv2d_bn_offset", "shape": [176], "dtype": "float32"}, {"name": "StatefulPartitionedCall/sequential/NASNet/separable_conv_1_normal_right2_10/separable_conv2d_weights", "shape": [1, 1, 176, 176], "dtype": "float32"}]}]}